checkpoint_actor.pth (torch_old, 169478 bytes, 6 tensors)

fc1.weight f4 [256, 33]
00000000: fae2 95bd d428 f7bd 6e1a a6bd 9132 033d
00000010: 5737 b0bc 1ba6 22bc 3513 a1bd db0e 673d
00000020: e1a4 523d 0437 ca3c 462c 9dbd aa34 433d
00000030: 202b 21bc 51f5 12be 85b0 203e 9f38 0e3e
00000040: f148 99bd d234 c73c 7a7f 7f3d 1bcc 4a3d
00000050: fcf7 07be 2846 6c3b 27bf 2ebe 92a3 74bd
00000060: ab3e 953c 652d 033b 2e7f 913d a2b3 c9bc
00000070: 6c78 f1bd 702a 013d 049f 6c3d 7400 e93c
00000080: 7ffe fcbd 7748 043e 74a0 51bd 3369 97bc
00000090: 30d6 953d fcd5 febc 3960 ba3c a76e f33d
000000a0: 6b4a 6f3d a88d 0dbd 8871 9cbd 938e 09be
000000b0: 848e 9cbd 7679 823c b138 113e 986a e73d
000000c0: e38e 29be e13a 7a3d af22 eebc 87a1 a1bd
000000d0: 8f68 473c 2e34 3abd 24a5 c53d e8f3 f1bd
000000e0: 5184 08bd 9c90 8ebb 230f 44bc a091 163d
000000f0: 51d4 5ebd 5f84 9cbc ca5b 71bd 8443 873d
00000100: 1a4e 543d 3d24 8abd 8898 4fbd 41eb f2bd
00000110: c005 75bd f932 153d a720 ef3c 8ad6 273d
00000120: 9993 6ebd fa30 4abd ec9b 443d 316d fd3b
00000130: e753 7cbd fadc 24bd 705a c0bc 93e0 c23d
00000140: 57ed 883d db6a 113e c210 823d d87b a7bc
00000150: 61eb bc3c d128 f5bc 7c79 b5bc 420b 963d
00000160: fad6 553d 020b 3f3d f52d 41bc 0b61 6f3d
00000170: 4233 49bd e7c5 dcbd cf11 1abe 2841 063d
00000180: eb6e 3a3d 7ca1 12bd e75d 86be 4857 ca3b
00000190: 7e5b b0bb d289 05bd 5e9e 823c be35 533d
000001a0: df14 423b 611f bb3b 3c59 15bd f403 d83c
000001b0: a419 a8bc aafd d6bd 84d4 cf3c 9cda b1bd
000001c0: a42c 20be be5c e33b 80d9 21be a0b4 19bd
000001d0: 39b1 15bd 5d7b 1cbc 5327 f3bc 69a3 f63c
000001e0: b43f b1bd 7c76 423d ccbd 4ebd 5606 79b8
000001f0: efe9 70bc eeb3 ef3d 3e2b a3bd 64c3 373d
00000200: 8c51 63bd 98c4 df3d 38cd 34bd 9cf3 d0bd
00000210: 5a78 843d 91e6 ebbd 2a7d 8abd 5167 aebc
00000220: 4d19 613d 6ee2 e13d fd9b 8f3c bbc5 8d3c
00000230: 858e 84bc 3c6c 2d3e a66a f33a a02e 75bd
00000240: a58e 573d 180a 173d 1a55 423e 8889 21bd
00000250: 2177 84bc 955f b83b aac1 c3bc 34a3 cc39
00000260: 055c 0d3c db45 b53b 5e83 b2bc cd6c 0c3c
00000270: 17b7 213d d1f9 033e c0bc ac3b 8dd9 4bbc
00000280: 8964 723e b84f 373c 1f4d c53c 28a8 743d
00000290: 3062 c7be 2cec 24be 24a0 1b3e f868 7ebc
000002a0: 5987 a63d d282 203c efc4 a13d 794b fb3d
000002b0: ec46 cd3d 914f 4f3d 7de5 0dbd 4523 783c
000002c0: d1ab 823d b427 81bd ed8a e3bd ce06 ffbb
000002d0: 2a78 073d a507 a13d 7df2 91bd 1cbe 833b
000002e0: be9b cb3b 97fc bcbd 55c5 48bd a5bc c2bd
000002f0: 7a1e 7dbc 33b2 8f3a 1747 363e a6b4 9a3d
00000300: 2371 6a3c 662e 23bd e88c bf3c 385f c0bc
00000310: b44c 823c 1fc5 62be 2c65 72bd 415c 203d
00000320: a982 93bc 5317 42bd 8dae 14bd 1260 ca3d
00000330: 8b0e 43bd 1b6a 143d fed3 96bc bbd9 873d
00000340: 9468 e73c a6ac 093e 41e0 4fbd 19d6 8ebd
00000350: 547f ff3d 8878 91bd 0e33 00be 2a64 783d
00000360: 78ea a93d 583e c8bc 0d2c a93d 8959 83bd
00000370: 1886 5f3d 479d db3c 3429 a3bd a981 5a3e
00000380: 31d1 2e3e 80ce 303c befe b6bc 90ba 223d
00000390: 2e40 8abd 3880 463c 328d a0bd aa77 adbc
000003a0: cfa1 a6bd a2b1 8d3d f9db 2f3d 8817 12bc
000003b0: 8df3 78bd 428e 2a3d 1c05 603d afef 71bc
000003c0: 753d 2dbd 05f3 353c b0e5 d0bd 1299 28bd
000003d0: a4cd ad3d efec 023b 026e 23be 8aba bdbc
000003e0: 27b8 e0bd 5476 e23d fbc9 8f3c a13c 0ebc
000003f0: 2d3f 983d 93d6 773d 049d a33d 3371 9cbd
-0.07318683 -0.12068334 -0.0811051 0.032030646 -0.021510763 -0.009927298 -0.078649916 0.05641065
0.051426772 0.024684437 -0.0767446 0.047657646 -0.009836942 -0.14351393 0.15692337 0.13888787
-0.074846156 0.024317179 0.06237743 0.049511056 -0.13278192 0.0036052559 -0.17065106 -0.059726305
0.018218359 0.002001607 0.07104336 -0.024621788 -0.11790547 0.031534612 0.057768837 0.028442599
-0.12353229 0.12918268 -0.05117841 -0.01848278 0.07316244 -0.031107895 0.02275096 0.1188634
0.05842058 -0.034558922 -0.07638842 -0.13433294 -0.0764437 0.015927058 0.14181782 0.11299628
-0.16558413 0.061091308 -0.029069273 -0.07892137 0.012170925 -0.04545992 0.09650639 -0.118140996
-0.03332931 -0.004350735 -0.0119664995 0.036759973 -0.0544017 -0.019106088 -0.058925427 0.066046745
0.051832296 -0.06745193 -0.050682575 -0.11861277 -0.059819937 0.036425564 0.029190375 0.040976085
-0.05824623 -0.049363114 0.04800026 0.007733964 -0.061603453 -0.040249802 -0.023480624 0.095154904
0.06685894 0.14200918 0.063508525 -0.020444795 0.023061456 -0.02992669 -0.022152655 0.07326366
0.05220697 0.046641357 -0.011790742 0.058442157 -0.04912115 -0.107799344 -0.15045856 0.03277698
0.045515936 -0.035798535 -0.26243517 0.0061749555 -0.0053820005 -0.03260214 0.015944656 0.051564924
0.002961449 0.0057105278 -0.036462054 0.026369072 -0.020520039 -0.10497601 0.02536989 -0.086842746
-0.15642029 0.006938546 -0.15805626 -0.037525773 -0.036545966 -0.0095508965 -0.029681837 0.030107217
-0.086547285 0.047476277 -0.050473973 -5.9372127e-05 -0.014704212 0.11704241 -0.07967232 0.044864073
-0.05549769 0.10926169 -0.044141024 -0.10202715 0.06468268 -0.115185864 -0.067621544 -0.0212895
0.05495577 0.11029516 0.017530436 0.0173062 -0.01618124 0.1693582 0.0018571212 -0.05985892
0.05262627 0.03687486 0.18977776 -0.0394378 -0.016170086 0.0056266286 -0.023896057 0.00039031508
0.008627896 0.005532009 -0.021791156 0.008570862 0.03948125 0.12888266 0.005271524 -0.012442005
0.23671164 0.01118844 0.024084626 0.05973068 -0.389421 -0.16105717 0.15197808 -0.015527956
0.08131284 0.009796815 0.0789889 0.12270255 0.10023293 0.05061299 -0.034642685 0.015145128
0.06380428 -0.06306401 -0.11110482 -0.0077827936 0.03307358 0.07862786 -0.07126329 0.0040204655
0.0062136343 -0.09227865 -0.049016315 -0.09508637 -0.015449161 0.0010963142 0.17800556 0.07553987
0.0143092 -0.03983917 0.023382619 -0.023482904 0.015905716 -0.22145508 -0.059178516 0.03915048
-0.01800664 -0.047385525 -0.036299277 0.09881605 -0.04762129 0.036234003 -0.018411633 0.06633326
0.028248109 0.13444766 -0.050750975 -0.0697443 0.12475458 -0.07103068 -0.12519476 0.0606424
0.082966745 -0.02444379 0.08260355 -0.06413562 0.05457124 0.026808394 -0.07966843 0.21338524
0.17071988 0.010791421 -0.022338267 0.0397287 -0.067505226 0.012115531 -0.07839431 -0.021175224
-0.08136331 0.069186464 0.04293439 -0.008916743 -0.060779143 0.041639574 0.054692373 -0.014766618
-0.042294938 0.011105304 -0.102000594 -0.041161604 0.084864885 0.001997765 -0.15959933 -0.023160238
-0.10972624 0.110577255 0.017552366 -0.008681447 0.07433925 0.06050737 0.07988933 -0.076387785

fc1.bias f4 [256]
00000000: 6259 133e c96d 763e 25fa 5d3d 0c37 5f3e
00000010: 7f76 f8bc 7e47 3dbe 26fd 31be 93bb 40bd
00000020: 18d0 0b3d 22b7 323e ea28 c1bd 7cc1 f8bd
00000030: 63a6 583e fd50 053d d8e5 2c3e 79e8 bfbc
00000040: 9e20 b6bd ff62 debc 1b4c ec3d 5986 89bd
00000050: 8229 033e 956d 9f3d c5e0 553d 448e de3d
00000060: e2e1 fdb8 4134 3abd 39cc 8f3c 213f e6bd
00000070: f0d6 b53d 028e bc3d 6531 103e dd11 79bd
00000080: 6f8e 26be a83b ebbd 9219 2f3d 83cd bc3c
00000090: cb4e 4c3e 9d6a 053e e1de 6ebd b332 293e
000000a0: 2fcc 9dbd 839b 0cbe 244a 513e 41e3 6ebd
000000b0: ba52 313c 8c79 06be 4681 cb3d 24b4 8f3d
000000c0: 276a 253e 4860 5d3b 6637 47bc 0896 293d
000000d0: 7a4b 17be 6ab6 7cbd 2c7e dabd cb95 403e
000000e0: a9b8 16bd 64dc 9bbc bf31 ac3d 51e2 ed3d
000000f0: adfb 83bc c62d 4c3e d4ae 3bbe 0956 933d
00000100: b597 2abe d5ce b2bd de3e c43d e4c2 4b3e
00000110: c2b7 a93d 8a61 dcbb 9e65 103e 6ee7 ce3d
00000120: 7859 e8bc ea02 02be 55f4 523d 4702 f23d
00000130: 6488 a6bb 833d 48bc fd7d 5a3e a90d f2bd
00000140: 6dc0 ac3d 3bae 5a3e 381a e13d ba84 113e
00000150: 0f3c 253e e628 11be 5b0a c73d 4bc5 8f3d
00000160: 7bc5 453e d1f8 e73c 3946 e53d f716 d53d
00000170: 80c4 093e ca6b 25be 02d5 17be f8e1 373e
00000180: 65d5 423e 6823 cfbd 78f7 103e d272 c3bd
00000190: 943a 2a3e e0be 513d 9e58 6f3e cce2 dc3c
000001a0: 0f88 e4bd 5c27 d73d 539b bbbd 919f 033e
000001b0: 3e9a 9f3d 4e08 a03c 35ba 913e 9a4b 193e
000001c0: 5f19 12be 66aa c03d 0069 5d3d 892f 63bd
000001d0: e305 463d fa1b c8bd e32d 953d fe61 b6bd
000001e0: fe80 093e 528e e13d 3922 6a3e ea0c a83c
000001f0: 76db 7cbc 3233 943d 3af7 063e 30a4 eb3d
00000200: 0c8c 13ba f0cc 863e 2622 09be 4958 51bd
00000210: d256 9f3c c359 443e 5528 42bc 2e4c 143d
00000220: 60f3 83bd 4228 143e 057d 12be a555 3dbd
00000230: 2612 ad3d dd05 efbd 3744 a8bd f6af 403d
00000240: 6fc5 8f3d fe5a 0ebe 8b81 4d3d 461b b03c
00000250: 4bae 633d 02b9 2a3e 6b2b c13d a1f7 42bd
00000260: a897 1e3d 4c68 193e d93f 353e 0dac 643d
00000270: 8aad 073e b385 ecbd 12a1 65bd c874 47bd
00000280: f814 b63d d0b1 e6bd 2aa6 bfbb 738d 33be
00000290: 07a2 8ebc bfcb 053e bc45 333e 9050 313d
000002a0: 380e 4a3d dd10 303e 7b4b 35bd 8202 313e
000002b0: 4e68 773e fec1 583e 892f 183e 5458 3f3e
000002c0: 208e 643e c3ea dbbc 08aa 583e 23ad ddbb
000002d0: 4e47 203c 149f 833d 80c7 0ebc 299a 44bd
000002e0: 4921 56bc 7fac 10bc a581 713d c17d 523d
000002f0: 081c 383e 56dd 823e 65ba af3a dd7e e93d
00000300: 3a47 f23d 3164 be3d fa0b 353e 8bd4 e73c
00000310: cf12 6dbd 5222 503d 3b2f 663c 23c5 9abc
00000320: 8998 96bc 3bc0 023e 1f24 fa3c e496 8ebb
00000330: 44dd 673d d2d0 e73c 95d8 80bc 641b 113d
00000340: 8b8f 02be 8f68 ffbb b8dd 803e 2cfc a93d
00000350: 6354 083e 6ef9 ae3d 13fb 473d 4c95 4e3e
00000360: 77fc 81bc 4f6c 1c3d c73a 673d 49bb 3d3e
00000370: e27a 653e a86e 7bbd af37 c1bd 9251 1bbe
00000380: fbe6 2e3e 5c70 2ebd 4b84 0ebe b49c 023d
00000390: 189e 8fbd 9bec 223e a7ae 8cbd 6e79 c53d
000003a0: 4ac8 1dbe f1cd 19be 2fe2 8d3e 4db5 a7bd
000003b0: 02c4 123e 8f35 3f3d 0a8b 1e3c 22d4 ccbd
000003c0: 4fe5 063d 2412 9dbc f909 533e a70d 433d
000003d0: 8160 c83d 55d5 bc3d 95e3 283d ae5b 2d3d
000003e0: a331 413e a4f8 fcbd 8dea 4d3e ec56 ac3c
000003f0: c27a 683e 0a52 8f3d 5496 c53c 06b7 eb3d
0.14389566 0.24065317 0.054193635 0.21798342 -0.03032994 -0.18484303 -0.17381725 -0.047053885
0.034134 0.17452672 -0.09431632 -0.12146279 0.21157221 0.03254794 0.16884553 -0.023426281
-0.0889294 -0.027146814 0.115379535 -0.06715078 0.12808803 0.07784573 0.05221631 0.10866979
-0.00012106054 -0.04545999 0.017553436 -0.1124251 0.08878887 0.09206773 0.14081343 -0.06080805
-0.16265272 -0.11485988 0.042748995 0.023047214 0.19951932 0.13028951 -0.058318023 0.16523246
-0.077049606 -0.13731198 0.20438439 -0.058322195 0.010822946 -0.13132304 0.09936766 0.07016781
0.16153775 0.0033779312 -0.012159204 0.041402847 -0.14774886 -0.0616974 -0.106685966 0.18807141
-0.0367972 -0.019025989 0.08407926 0.11615432 -0.01611122 0.19939336 -0.1832841 0.07194144
-0.16659434 -0.08730856 0.095823035 0.19898564 0.08287002 -0.0067254947 0.14101264 0.101027355
-0.028362975 -0.12696424 0.051502544 0.118168406 -0.005082177 -0.012221697 0.21337123 -0.11819012
0.0843514 0.21355526 0.10991329 0.14210787 0.16136192 -0.14175758 0.09718772 0.070200525
0.19313614 0.028316887 0.111950345 0.10404771 0.13453865 -0.161544 -0.1482735 0.17957294
0.19026716 -0.10114175 0.14156902 -0.095433846 0.16623908 0.051207423 0.23373649 0.026963614
-0.111587636 0.10505554 -0.09160485 0.12853839 0.07793091 0.01953521 0.28462377 0.14970246
-0.14267491 0.09407501 0.054055214 -0.055465255 0.048345458 -0.09770961 0.07284143 -0.08905409
0.13428113 0.110134736 0.22864617 0.02051397 -0.015433183 0.07236327 0.13180247 0.11505926
-0.00056284736 0.2632823 -0.13391933 -0.051109586 0.019450579 0.19174866 -0.011850436 0.036205463
-0.064429045 0.14468482 -0.14305504 -0.046224255 0.08450727 -0.1167104 -0.08216136 0.04704281
0.07020079 -0.13901898 0.05017237 0.02149738 0.05558614 0.16672137 0.094321094 -0.04759944
0.03871885 0.14981192 0.17700137 0.055828143 0.13249794 -0.115489386 -0.05606181 -0.048695356
0.08890718 -0.11264384 -0.0058486657 -0.17534427 -0.017411245 0.13066004 0.1750707 0.04328972
0.049329966 0.17193933 -0.044261437 0.17286113 0.24160883 0.21167752 0.14861883 0.18686038
0.22319841 -0.026845342 0.21158612 -0.0067650243 0.009782625 0.06426826 -0.008714557 -0.04799858
-0.013069459 -0.008830189 0.05896153 0.05138946 0.17979443 0.2555949 0.001340699 0.114011504
0.11829992 0.09296454 0.1768035 0.02829959 -0.057879265 0.05081398 0.014049347 -0.01889283
-0.018383281 0.12768643 0.030534802 -0.0043514837 0.0566075 0.028297815 -0.015728274 0.035426512
-0.1275007 -0.007794447 0.25169158 0.08300051 0.13313441 0.08543669 0.048823427 0.2017414
-0.015867455 0.03818923 0.05645254 0.18528475 0.22410157 -0.061384827 -0.09434449 -0.15167835
0.170803 -0.042587623 -0.13917653 0.031887725 -0.07012576 0.1591057 -0.0686925 0.096423015
-0.15408435 -0.15019967 0.27711627 -0.08188877 0.14332584 0.046681937 0.009676704 -0.100013986
0.03293353 -0.01917369 0.20609273 0.04762044 0.09784032 0.09220377 0.041232664 0.04232376
0.18866591 -0.12352112 0.20109005 0.021037541 0.22703078 0.069980696 0.024119534 0.11509518

fc2.weight f4 [128, 256]
00000000: b67c 84bb e2b9 1f3e d21a 4ebe 677a ec3b
00000010: 7793 c63d c073 28bd 1503 55bd 4444 d43d
00000020: 30ad fd3c 5a70 ff3b 9e56 713e 5491 a43d
00000030: f105 c33d a649 be3c a72b 633d 83b4 88bc
00000040: d105 dfbc 51b3 d73d c571 fc3c 7beb 36be
00000050: cda4 e83d 1fc8 2a3e 6cef 0abe b42d b8bc
00000060: 1f62 37bb ded5 78bb e428 c23d 2810 623e
00000070: 7aa1 38be a081 843e f14a 483e e869 7abd
00000080: fd69 40be 509d 8dbd f963 76bd 254b 5fbd
00000090: 5cbd 983d 89ec e43d cb93 3fbd b0db 20be
000000a0: 6a09 31be 9031 993e f9b2 c3bd f79d 913d
000000b0: 8986 773d b982 2cbc 184b 11bd 907d cfbd
000000c0: c648 68bd 9aee b7bd 3268 643d e870 f63a
000000d0: a5e8 81be 7cc2 91be db02 e83d 0bc8 88bc
000000e0: a364 3ebe 1d07 15bd 038d ba3d 5cf8 113d
000000f0: 26b1 c83d d100 053c fe98 ea3c b52f 983d
00000100: b4e1 0bbe d988 b1bd 660b b83d b3dc e23d
00000110: 6d82 b03d 39a8 89bd 7927 08bd f57d 1b3d
00000120: ad63 b23c a339 0fbc 318e d63d afd2 ee3c
00000130: f736 9abd 2afb cc3c c426 41bc 945a 5e3b
00000140: 606f 9f3d bebf 98bc 8bc0 12be 40c3 013d
00000150: 938a 933d bba1 8dbe f19e 41be 8a50 ae3c
00000160: 8fe3 f83d 6455 afbd 6f90 73bc d182 f6bd
00000170: af23 6cbe 69d3 29be cd34 adbd 6b06 533d
00000180: c887 373c 7842 5a3b f134 31be 7867 093d
00000190: ec0f 5f3e c5ab 2a3d 6159 4b3e 5c67 9c3c
000001a0: f2ff ba3c 1a0c 8a3d f185 3ebd 1247 9dbd
000001b0: 2a20 1bbe 7541 42bd eaeb debc 310f 113e
000001c0: 868f c03d b40b 883d 9de8 933d d8a6 67bc
000001d0: 1264 543d 4de7 8c3d 0c54 00be a5a3 67be
000001e0: 5d76 0ebd 8750 4f3e 6f40 29be f693 1e3d
000001f0: 8509 623e 5be3 473e c0c8 acbd 8928 433e
00000200: e3dc afbd 2256 f23d 400c d2bd 4537 0abe
00000210: 3837 013e 896e cdbd 08a8 5ebe ea5d 133e
00000220: b893 77be b159 173c b514 863d 40db 79be
00000230: 4614 073d 37d9 c1bd 2099 67be 3ba4 633d
00000240: db40 e13c c3c7 5c3c edfc 95bd 5199 b83c
00000250: 19c9 fbbc 09ac 17bd 0dc3 d4bc a182 c13d
00000260: 4004 283d 93c4 823e c4e6 26bd 6107 f63b
00000270: 559f 07bd fb53 a9bd 25c0 3d3d b13d bc3d
00000280: 5756 80bd 5c25 f8bd 9711 eabc d452 5c3e
00000290: f06a 493e 897a 44be 282d 5ebe ce53 f8bc
000002a0: 0c39 103c b3b6 4ebe 174f 4b3d 6a2e 0abc
000002b0: ce64 d6bd 30c2 8bbd c427 0ebd b7dc 87bd
000002c0: 7ed7 8c3d a3f1 eebd 0607 bdbb 2d29 e23d
000002d0: d966 50be a26a 44be cc2d a23d 710c 04be
000002e0: 11c6 f8bd f284 90bd 09fe a43d 66eb 053e
000002f0: 934d 8e3d c49e 053d c9b0 a23d 904f 89bd
00000300: 15aa c93d a007 e6bd 16f5 62be af21 11be
00000310: 9560 81be f48b 6c3d 0406 9ebd 6ab9 21bd
00000320: 374d f23c 5b69 823d 5a4c 303d c712 2abe
00000330: a4de 51be 8f1d fcbd 8bab 8abe 349c 06be
00000340: 3fd6 f8bc ae9e 84bc d887 80bc 9a98 f4bc
00000350: 3641 8b3d bfe4 203e 3ba6 7cbd 21fe 7e3d
00000360: e609 bc3d f151 e63d 80d9 4dbe 0e3c f6bd
00000370: 5001 ce3d ea66 1ebd 33e9 173c db86 0dbd
00000380: ca0c 253e 3935 1ebe 9bf3 37be 453b 32bd
00000390: 2e09 abbc f6f8 44be ff4d 433d d2ef fb3d
000003a0: ecd9 2d3d 3e26 debc c733 7f3d 4162 58bd
000003b0: 81f3 cfbd a231 463e d3ac 5abe 9193 88bc
000003c0: c125 29be bc15 a93d e545 f3bb ad28 9abd
000003d0: b949 a8bc b52c 03bd fff8 b73c 7274 03be
000003e0: 4d60 86bd 0c07 a9bd dff9 3d3d e8b5 0e3e
000003f0: 7f0d 28be 087a bd3d b921 28bd 7455 103e
-0.004043187 0.15598252 -0.20127419 0.00721674 0.096960954 -0.041126013 -0.052004892 0.10364583
0.030966371 0.007795376 0.23568198 0.08035532 0.095226176 0.023228478 0.055461552 -0.016687637
-0.027224453 0.10532249 0.030815968 -0.17863266 0.11359558 0.16677903 -0.13567895 -0.02248273
-0.0027982069 -0.0037969272 0.094804555 0.22076476 -0.18030348 0.25880146 0.19559838 -0.061136156
-0.18790431 -0.069147706 -0.060153935 -0.054515023 0.074579924 0.11177928 -0.046771806 -0.15708804
-0.17288747 0.29920626 -0.09555621 0.071102075 0.060431037 -0.010529214 -0.035472006 -0.10131371
-0.056710027 -0.089810565 0.05576343 0.0018801959 -0.25372806 -0.28468692 0.1132867 -0.01669695
-0.18593077 -0.036383737 0.09108927 0.035637245 0.097994134 0.00811787 0.028637405 0.074309744
-0.13660318 -0.0866868 0.08986549 0.11077251 0.08618627 -0.06721539 -0.03324077 0.03796192
0.021776045 -0.008741769 0.104763396 0.029153196 -0.07530015 0.025022108 -0.011789028 0.00339285
0.07784915 -0.018646117 -0.14331262 0.031680346 0.07204165 -0.27662453 -0.18908288 0.021278638
0.12152778 -0.08561209 -0.014865979 -0.1203667 -0.23060487 -0.16584553 -0.084573366 0.051519793
0.011201806 0.0033303779 -0.17305352 0.03354594 0.21783417 0.04166772 0.19858314 0.019092254
0.022827122 0.067405894 -0.046514455 -0.07679571 -0.15148988 -0.047425706 -0.027212102 0.14165951
0.09402375 0.06642857 0.07222102 -0.0141389 0.051853247 0.068800546 -0.12532061 -0.22621019
-0.03478085 0.20245562 -0.16528486 0.038715325 0.22073944 0.19520323 -0.084367275 0.19058432
-0.08587053 0.11832835 -0.10256243 -0.13497646 0.1261872 -0.100308485 -0.21743786 0.14391294
-0.24177444 0.009237693 0.06546918 -0.24400043 0.03297832 -0.094652586 -0.22617006 0.055576544
0.027496746 0.013475361 -0.073236324 0.022534044 -0.03073554 -0.0370293 -0.025971914 0.094487436
0.041019678 0.255406 -0.04074742 0.007508204 -0.033110935 -0.08267971 0.04632582 0.09191454
-0.06266468 -0.12116501 -0.02857284 0.21515971 0.196697 -0.19187368 -0.21696913 -0.030313399
0.008802664 -0.20186882 0.049635973 -0.008433918 -0.10468446 -0.06824148 -0.034705892 -0.06633895
0.068770394 -0.11667182 -0.0057686595 0.1104301 -0.20351733 -0.19181302 0.07918891 -0.12895371
-0.12147153 -0.07056607 0.08056266 0.13078079 0.0694839 0.032622114 0.07943875 -0.067046285
0.09846894 -0.11231923 -0.22163805 -0.14173006 -0.25269 0.057750657 -0.07715991 -0.039483465
0.029577835 0.06367751 0.043041565 -0.16608725 -0.20495087 -0.12310325 -0.27084002 -0.13145524
-0.030375598 -0.016188946 -0.015689775 -0.029857922 0.067995474 0.1571226 -0.061681967 0.062254075
0.091815755 0.11246098 -0.20102501 -0.12023173 0.10058844 -0.038672365 0.009271908 -0.034552436
0.1611816 -0.1544999 -0.17964022 -0.043513555 -0.0208784 -0.19235596 0.047681805 0.123016015
0.042444155 -0.027117845 0.062305238 -0.052828077 -0.101538666 0.19354871 -0.2135499 -0.016671928
-0.16518308 0.08256099 -0.0074241036 -0.075272895 -0.020542966 -0.032025058 0.022457598 -0.12837389
-0.06561337 -0.08253297 0.046380874 0.13936579 -0.16411398 0.09251791 -0.041047785 0.14095098

fc2.bias f4 [128]
00000000: e904 a03d cae7 9d3c ce52 aebb 88a8 68bc
00000010: 0a12 01bd 305c bbbc 3043 2cbc 5b5b 803b
00000020: ee4a 96bc 9439 ad3c 4acb a23d 73a9 60bc
00000030: e965 433c 12d9 47bb 7b9b e4bb 1e94 f23c
00000040: 558e 343d 1cdd c53d 0d62 ddbc ec26 f5bc
00000050: 5c0d d3bc 6f05 d7bc ac5a 1abd 47dd e63c
00000060: ede0 a93b df21 98bc 0408 72bd 5178 fa3c
00000070: 7de7 863c 0539 863d 2441 7abd 0f8b c2bc
00000080: d71f 35bd 4bc5 acbc ecfe 96bd 0ba9 06bb
00000090: 929f fa3a bcaa 1bbc 63b6 a4bc 8df5 1dbc
000000a0: a0af e03d 535a a4bc 2000 ce3c 047e 74bc
000000b0: f0b0 38bc 30ba 953d 378a 8a3d 4380 14bd
000000c0: 7098 8b3c ab0c 933d 3b3c b5bc b31c a7bc
000000d0: 7d71 593a 22f9 643c 576a 45bb 1459 bb3d
000000e0: 2214 833d 1460 183c df64 853d 7467 6b3c
000000f0: b3eb 8b3c 2faf 513d f51a 1b3d ff6b aa3d
00000100: bf45 87bd f337 d83c cbd4 eebb 241e 103d
00000110: 29d7 2e3c ecc1 423d 78d8 a63a c99b 3b3d
00000120: 46a3 e53c a271 423d 53ee 813b cf6d ca3a
00000130: 3325 4cbd 7c60 6b3d 6800 a13c 6d17 a93d
00000140: 1a6e 7cbd 1f48 213c 8fd3 ce3d f29c aa3d
00000150: d37d cd3b 7f81 0ebd 9ec1 503d e47b 3fbb
00000160: bcc9 3f3d fe10 b83c efac f43d 0c3c b23c
00000170: 6a1c 3e3d 04f1 1e3d 3725 54bc b9ba 5e3c
00000180: 905d 4abc 7d41 473d 7d91 133d 4dde 33bd
00000190: 1a65 e8bc 87c8 693d 7736 8fbc 701b 983c
000001a0: b12b 973c b63d 9f3d 64dd 1cbd 41b3 8e3d
000001b0: fae3 b23d 1816 83bb d57f 6abc 563f a83a
000001c0: 5683 a13d 93d1 1a3d c968 ac3d 76bb 6c3c
000001d0: 98c9 8b3d d79c e13c 311a 943d db1f 873d
000001e0: 7395 a1bd 86ed 103d 1f0e 50bc fc47 573d
000001f0: 733d 1fbd a99f 6ebd 2fe5 d3bc 9bd6 9d3c
0.078134365 0.019275565 -0.0053199297 -0.014200337 -0.031511344 -0.022871107 -0.010514066 0.0039171404
-0.018346276 0.02114562 0.079489306 -0.013712275 0.011926153 -0.0030494374 -0.0069765425 0.029611643
0.04408105 0.09661314 -0.027024293 -0.029925786 -0.025763206 -0.026247708 -0.037684128 0.028181685
0.005184284 -0.018570838 -0.059089676 0.03057495 0.016467804 0.06553844 -0.06109728 -0.023747949
-0.044219818 -0.02109017 -0.07372841 -0.0020547535 0.0019121042 -0.0095011555 -0.0201065 -0.009641063
0.10970998 -0.020062601 0.025146544 -0.014922623 -0.011272654 0.07310903 0.06764644 -0.036255132
0.017040461 0.071801506 -0.022123447 -0.020399427 0.0008294804 0.0139754135 -0.0030123198 0.0914785
0.064003244 0.009300251 0.0651338 0.014367927 0.017080164 0.05119246 0.037867505 0.0832138
-0.066051 0.026393866 -0.0072885505 0.035184994 0.010671415 0.04754822 0.0012729308 0.045802865
0.028031956 0.04747165 0.003965178 0.0015444102 -0.049840163 0.05746506 0.019653514 0.08256421
-0.06162844 0.009843855 0.10098945 0.08330716 0.006271103 -0.034791466 0.050965898 -0.0029218132
0.04682325 0.02246904 0.11947047 0.021757148 0.046413817 0.03880407 -0.012948326 0.013594323
-0.012351409 0.04864644 0.03602742 -0.043913174 -0.028368521 0.057076003 -0.017482026 0.01856777
0.01845345 0.07775442 -0.038297072 0.06967784 0.08734889 -0.0040004365 -0.014312704 0.0012836258
0.078863785 0.03779752 0.08418424 0.014448991 0.0682556 0.027540607 0.07231558 0.06597873
-0.07889833 0.03538277 -0.012698679 0.052558884 -0.038876962 -0.058257733 -0.02586612 0.01926737

fc3.weight f4 [4, 128]
00000000: 7038 233e 9efe ca3d 5074 b7bd d625 803e
00000010: 9044 bdbd dd4b 4ebe 4434 14bd 5a3e 043e
00000020: 49a7 efbd ce54 85bd f2fa 243d 7350 de3d
00000030: 3caf b73d 01f0 173d db51 c8bc be22 6f3e
00000040: 7161 5c3c 30c1 253d a23f c83d fb5a 5abe
00000050: d948 673e 4953 173e 96ee d2bd f46a d3bd
00000060: f471 a2bd d5d7 f73d 22ea 2f3d 8f3b 2c3d
00000070: d5a5 b5bd 95a7 b93c ee31 703e 9ee2 a1bd
00000080: 0f26 2dbc ff09 273d 2c5b 853e 9e7c 71bb
00000090: fe4c 6ebe 7c0e 03be 1d65 eebd 1a8e e0ba
000000a0: a9af 61bd 7cf6 d13c 69eb 32bd 3d01 3dbe
000000b0: d4ad c93b 4e1f 31bb 2c58 023e 19df bfbd
000000c0: 67bf 633d 5978 6dbe 0db8 9ebe e12e 1ebd
000000d0: 7b89 b8bd d5cb 2b3e 6352 9a3c 91d0 d13d
000000e0: a681 a63e 1d3f f6be 46a9 cfbd 6778 57bd
000000f0: b204 a23e 640f bebe d433 c83c cb02 ce3d
00000100: ab33 b03d 899e 713b 91e3 223d 970e cc3d
00000110: d93d 163e ada8 b33d 4494 0abe 90bc 15be
00000120: 18a1 633d fb3c 463d 6036 723d 5636 87bd
00000130: 694a 463e 742b ae3d 355b 133f e071 ccbd
00000140: 1ad9 f53b d9fe c93d 2d96 57bd 5b3b de3d
00000150: 7067 1e3e eaee 89bd 5faa 08bd 9048 2dbe
00000160: 5ccd afbd 2a53 4abe 5e88 893e acd2 883e
00000170: 8588 a1bd 3fba b83d 95a4 743e 085f 8f3e
00000180: c98a cf3d e5df ddbd fb99 42be 75f9 dabd
00000190: e197 6abd c3c6 80be 4be0 3b3e d24b bfbd
000001a0: 37a8 3e3d 0c8c 51bd bb1b f4bd 3ad1 053e
000001b0: 9e05 cf3d 43b9 2d3d c674 f2bc c41b d83d
000001c0: 76b0 843d 3361 72bd d962 0ebe d63e 56be
000001d0: 0ad1 7f3d 178b e83c 6742 813d 6a4d 6339
000001e0: 1b4d b2be 6f1b a23d 2388 62bd 7cfe 64be
000001f0: 81b3 2abd b374 b5bd 9422 ed3d 72f0 dd3c
00000200: a9de d2be 2abb 94bd 866f d7bd 6c7e 3d3d
00000210: dc41 323d 264a 193f 10ae aa3d 257e 8a3d
00000220: b4c1 333e d389 89bd d4c0 23be 034d 9cbe
00000230: ccfd a7bd fbb6 893e dec2 893e 001d 823d
00000240: ed1c 193c c93b 03be cc61 293e 8a2f 39bb
00000250: 62c4 fc3e 14a7 833e dec9 ed3c 6eeb ef3d
00000260: e299 833c 57b2 24bc cce2 343e a861 a43d
00000270: 3024 1f3d f8a0 4dbe ebfa 0fbf a707 b33d
00000280: 7647 45bd 8264 20bd ff05 e4be 2bc3 573e
00000290: 7c67 babc 5f45 53bd 72cd 563e 3ad7 20be
000002a0: 5baa 0cbe 5907 bb3c 0526 6dbc a32d c03d
000002b0: c7a6 e4bd 6b0e c4be f226 92be a524 573e
000002c0: 8b86 b6bd 9539 1ebe bc97 b8be 8c51 dd3d
000002d0: d4ab 443d c4d2 5cbe f987 dc3d 5624 86be
000002e0: b8c2 05bd 2e8d ccbe 4bc4 063d 6c9b 113d
000002f0: 6e6f 46be f3b6 35be 52b9 5cbd 6972 713b
00000300: 9595 423e 991c 623e 1dfd dabd 7d16 31be
00000310: cee8 febd bc30 a4bd dca5 443d 6c34 213e
00000320: 7e48 ce3d 62c3 cdbd fbc9 e73d 75d6 9e3e
00000330: f4df ccbd 6725 953e fb29 68be 8350 5a3c
00000340: b198 913e 99f5 3b3e 9cd3 5bbe f9f7 dfbe
00000350: a9c5 6dbc ff4e 383e ca93 b2bc 1d6d 7fbb
00000360: 196b 1b3e 508f e6bd bdc9 a13c 60ca b43e
00000370: 1136 b0bb d4b2 a6bd 0abe 9bbd 6ee8 50be
00000380: 26b4 3c3d d586 533a dd60 06bd dfdb 86bd
00000390: 1542 8b3c b85e cfbd e8bb 3ebd 4a26 5a3d
000003a0: 87b4 e93e aeab 8cbe 86b5 253e f6bd b43d
000003b0: 2bc6 24bd baaf 77bd de15 583e e794 7f3b
000003c0: 6154 22be 24a9 10be 1230 073d f3bc 2ebe
000003d0: 1956 e2bd 2e98 e2bc 0905 8c3d e314 e33d
000003e0: 46f2 16be ee84 303d 9a5e cabb 2597 5c3e
000003f0: b9b9 edbe 1926 f83a 31c4 3b3e 5988 e6bd
0.15939498 0.099118456 -0.08957732 0.25028867 -0.09241593 -0.20146127 -0.036182657 0.1291441
-0.11701829 -0.06510316 0.040278383 0.10855188 0.0896897 0.03709412 -0.024453094 0.23353097
0.013450966 0.04046744 0.09777762 -0.21323769 0.22586383 0.14777865 -0.10299413 -0.10323134
-0.07931891 0.121017136 0.042947896 0.042048987 -0.088695206 0.022662917 0.23456547 -0.07904552
-0.010568156 0.040781017 0.2604612 -0.003684796 -0.23271558 -0.12798494 -0.116403796 -0.0017132193
-0.055099163 0.025630228 -0.043681536 -0.18457504 0.006154755 -0.0027026716 0.12728947 -0.093687244
0.055602457 -0.2319044 -0.30999795 -0.038618926 -0.09010597 0.16776974 0.018838113 0.10244859
0.3252079 -0.48095027 -0.10139708 -0.05260506 0.31644207 -0.37121117 0.024438776 0.100591265
0.08603605 0.0036868176 0.039767805 0.0996372 0.1467203 0.08772407 -0.13533121 -0.14622712
0.055573553 0.048398 0.059133887 -0.06602161 0.19364323 0.08504382 0.57561046 -0.099826574
0.007502687 0.098630615 -0.052633453 0.10851165 0.15469146 -0.06735022 -0.033365604 -0.16922212
-0.08584091 -0.19758287 0.26861852 0.2672323 -0.07887367 0.090198986 0.23890908 0.2800219
0.10133893 -0.1083372 -0.19004051 -0.106921114 -0.05727375 -0.25151643 0.1834728 -0.093406335
0.04654714 -0.05115895 -0.11919352 0.13068095 0.10108493 0.042413007 -0.029596698 0.10552171
0.0647897 -0.059174728 -0.13904895 -0.20922408 0.062455215 0.028386636 0.06311493 0.00021677246
-0.34824452 0.07915389 -0.05530561 -0.22362703 -0.041675095 -0.08860149 0.11578861 0.027092192
-0.411855 -0.07262261 -0.10519318 0.046263143 0.04351984 0.59878767 0.08333981 0.067623414
0.1755436 -0.06715741 -0.15991527 -0.30527505 -0.08202705 0.26897416 0.26906484 0.063531876
0.009345275 -0.12815775 0.16541213 -0.0028257095 0.49368578 0.25713408 0.029026922 0.117148265
0.016064588 -0.010052285 0.17664641 0.08026439 0.03885287 -0.20080936 -0.56242245 0.08741694
-0.048163854 -0.03915835 -0.44535825 0.21070544 -0.022754423 -0.05157983 0.20976809 -0.15707102
-0.1373686 0.022830652 -0.014474397 0.093837045 -0.11164623 -0.3829225 -0.28545338 0.21010073
-0.08912381 -0.15451653 -0.36053264 0.108065695 0.04801543 -0.21564776 0.10768122 -0.26199597
-0.0326564 -0.39951462 0.032902043 0.035548612 -0.19378445 -0.17745571 -0.053887673 0.0036841875
0.19002374 0.22081222 -0.10692809 -0.17293735 -0.12446748 -0.08017108 0.04800974 0.15742654
0.100724205 -0.10047032 0.113178216 0.31022993 -0.10003653 0.29130098 -0.22672264 0.01332486
0.28436807 0.18355407 -0.21467441 -0.43743876 -0.014512458 0.17998885 -0.021798987 -0.0038974949
0.15177573 -0.112578034 0.019749517 0.3531065 -0.005377539 -0.081395775 -0.076046064 -0.20401165
0.04607024 0.0008069103 -0.03280722 -0.06584906 0.016999284 -0.10125488 -0.04656592 0.05325917
0.45645544 -0.2747473 0.16182527 0.08825295 -0.04022805 -0.06047032 0.21102092 0.0038998665
-0.158525 -0.14127022 0.033004828 -0.17064266 -0.11051578 -0.027660456 0.06836898 0.11087968
-0.14740857 0.04309552 -0.006175828 0.21542032 -0.46430758 0.0018932252 0.1833656 -0.11256475

fc3.bias f4 [4]
00000000: d77b 823d dc67 96bd 7959 573d 2b43 debc
0.06371277 -0.07344028 0.052575562 -0.027131638
