checkpoint_actor.pth (torch_old, 169478 bytes, 6 tensors)

fc1.weight f4 [256, 33]
000000 ab 67 be bd 6d 2d 16 bd ee 3f 2b 3d 07 71 96 3d
       -0.09297117 -0.036664415 0.041809015 0.07345777
000010 23 8d 45 3d 6f 1f dc ba 74 fd b5 3c 81 30 10 3d
       0.0482303 -0.0016794036 0.022215582 0.035202507
000020 69 c4 dc ba d5 2f 43 3d 61 8f 40 bd 3b b8 45 bc
       -0.0016843203 0.047653038 -0.047011737 -0.01206785
000030 e2 6e ce bd 46 50 48 bd 30 4b 01 bd 38 2f c4 bc
       -0.10079743 -0.04890468 -0.031565845 -0.023948297
000040 74 75 87 bd 25 20 04 bc 43 95 11 3d f9 13 4e 3d
       -0.06614199 -0.0080643045 0.035542738 0.050312016
000050 93 ea f6 bc bd 4b 66 3d 5e ff 57 bd d5 c6 9a 3c
       -0.03014115 0.056224573 -0.05273377 0.018893639
000060 7c 91 1f bd b7 7d af bb 46 68 24 3e 08 bc b9 3d
       -0.038957104 -0.0053555625 0.16055402 0.09069067
000070 ec 2d ed bd 70 2a 01 3d e6 b1 6b bd 74 00 e9 3c
       -0.115810245 0.031534612 -0.057542704 0.028442599
000080 aa 83 00 bd bb e1 b1 bc a3 3b 34 bd 66 d8 17 be
       -0.031375565 -0.021714082 -0.044002187 -0.14828643
000090 22 15 f9 3c bc 54 95 3d 30 2a 29 3d 5a 71 22 3d
       0.030405585 0.072915524 0.0413 0.03965888
0000a0 5c 3a c6 3d 52 8b 57 3d da 07 ea 3d 7a 94 04 3e
       0.096791 0.0526231 0.11427279 0.12947264
0000b0 91 b6 3d 3d 21 00 96 3d a1 da d3 3d d9 b1 1e be
       0.046316687 0.07324243 0.103444345 -0.15497531
0000c0 95 77 a0 bd 2e 28 55 3d 80 8d 25 3d 17 8a 72 bc
       -0.078353085 0.05204027 0.040418148 -0.014803431
0000d0 33 b8 14 bd 36 42 a0 bd ac 69 20 3c 7b dd ca bd
       -0.03630848 -0.07825129 0.009790819 -0.09905525
0000e0 57 a8 fc 3a 60 c0 a2 bd 29 89 0c be 12 50 43 3e
       0.0019276243 -0.07946849 -0.13724197 0.19073513
0000f0 97 6f ef 3c c4 0c 1f 3c ca 5b 71 bd be 09 90 bc
       0.029228015 0.009707633 -0.058925427 -0.01758277
000100 1a 4e 54 3d d0 24 3f be d1 af 2a 3d ee 04 d9 3b
       0.051832296 -0.18666387 0.041671578 0.006622902
000110 1c 1f 20 bd bf 51 e9 3b cc f8 0c 3e 27 95 4f bd
       -0.03909217 0.0071203406 0.13766783 -0.050679352
000120 75 f4 9f bc 8b 2a 8e 3d 14 c1 42 3e 2e be 21 3d
       -0.019525746 0.06941708 0.19018966 0.03948801
000130 41 2d c9 3d 71 f3 3c bd 1b 6e 76 3d a9 18 3c bd
       0.098230846 -0.0461306 0.0601636 -0.045921955
000140 89 d1 37 3e c2 05 57 bd f0 06 75 bd 84 3c 50 bd
       0.17951025 -0.052495725 -0.05982107 -0.050838962
000150 07 bb 7c bd 12 35 5e bd 57 c0 cb 3c 4a af 9a 3d
       -0.0617018 -0.05424983 0.024871988 0.07552965
000160 54 b3 1d be 31 7d a2 3d 89 20 21 3d bc 77 e8 3d
       -0.1540044 0.079340346 0.03933767 0.113509625
000170 a8 65 bb 3d ae 9a 3e bd ba ab b6 3d 28 41 06 3d
       0.09150249 -0.046534233 0.08919473 0.03277698
000180 c9 05 81 bc 7c a1 12 bd 57 9e df 3e ae 66 f7 3d
       -0.015749829 -0.035798535 0.4367549 0.120801315
000190 db 28 d0 bd 00 89 c6 3d 0a c9 13 3d 25 10 13 bd
       -0.101640426 0.096940994 0.036080398 -0.03590407
0001a0 a4 86 ec ba 7b 79 cd bc e8 80 8f bd 66 90 a8 3c
       -0.0018045497 -0.02508234 -0.07007009 0.020576667
0001b0 8f 91 19 bc 58 2b b7 3d e5 f2 19 bc 8a d9 60 3d
       -0.009373083 0.08943814 -0.0093962895 0.05489496
0001c0 9e e1 56 be 00 3b 47 bd a5 57 87 bd 9a 08 f5 bc
       -0.20984504 -0.04864025 -0.06608514 -0.029911328
0001d0 23 e7 9f 3c 00 a2 07 3c f5 00 fe bc 03 0f ab 3c
       0.019519394 0.00827837 -0.031006316 0.020881182
0001e0 bc 19 2c 3a 06 29 b1 bd 56 98 6e 3c 7d 7b 94 3c
       0.0006565114 -0.08650403 0.014562687 0.01812529
0001f0 1d 37 51 3d 1a 75 83 3e aa ef 91 bd 21 b0 e0 3d
       0.05107795 0.2567528 -0.071257904 0.10971094
000200 8c 51 63 bd 3d 89 ce 3d 38 cd 34 bd bf 52 07 3f
       -0.05549769 0.1008477 -0.044141024 0.52860636
000210 7e ad 0e bd 53 62 7c bd b2 a6 7f 3d 32 1e ee 3d
       -0.034833424 -0.061617207 0.062414832 0.11626853
000220 9e e8 18 3b fa f0 f6 bd 90 0a 3d 3e 71 35 c0 3d
       0.002333201 -0.120576814 0.1846106 0.09385193
000230 19 55 08 3d 3b 5b 73 3d 98 ec a1 3c 33 6d a7 bd
       0.03328428 0.059413176 0.019766137 -0.08175125
000240 c0 af 63 3c 3f 66 84 bd 76 fb 08 3d 2f 33 81 bd
       0.0138968825 -0.064648144 0.033442937 -0.063085906
000250 47 e8 a3 3d 92 eb a4 bc 71 27 51 3c 40 00 94 bb
       0.08003288 -0.02013186 0.012765751 -0.0045166314
000260 c4 05 17 be e7 b2 c6 bc 4f 2b 63 bd ad df 36 bd
       -0.14748293 -0.02425523 -0.055461224 -0.044646908
000270 0b 76 85 3d 4d aa 22 be ba 5e ab 3d ca d7 e0 bd
       0.065166555 -0.15885277 0.08367677 -0.109786585
000280 8d a5 07 bd b8 4f 37 3c cc af f8 3d 28 a8 74 3d
       -0.033116866 0.01118844 0.121429056 0.05973068
000290 ec 19 72 3e 78 a0 cc bc c6 23 0b 3d 5c fa d8 3c
       0.23642701 -0.024978861 0.033969663 0.026486568
0002a0 df 6b 11 3d db cf b9 3d 46 91 fa 3c 03 d0 8b bb
       0.035503265 0.090728484 0.03058685 -0.0042667403
0002b0 c3 67 fa 3c 82 7f ce 3c d3 02 74 bb f7 06 80 bd
       0.030567056 0.025207285 -0.0037233129 -0.062513284
0002c0 62 28 a5 3d c0 54 a1 bb 68 5f b9 bd 6b b1 3d 3c
       0.08064343 -0.004923433 -0.090514004 0.011577944
0002d0 31 0e 02 3e d0 f0 83 3d 9a fd 96 bd f4 ed 15 be
       0.12700726 0.06442416 -0.073725894 -0.14641553
0002e0 25 ed 60 3c ec d0 12 be 3d 7f 9e 3d 02 69 33 bb
       0.013728415 -0.1433751 0.077391125 -0.0027375822
0002f0 e8 cd 10 bd f1 b9 72 bd 22 40 5e 3e 25 e6 31 bb
       -0.035352618 -0.05925936 0.21704152 -0.0027145233
000300 fe c6 46 3d 5f 5e ef 3d e8 8c bf 3c 3a 5a 6c bd
       0.048529617 0.11687922 0.023382619 -0.057703234
000310 b4 4c 82 3c 70 1a f0 be bf 14 a4 bd e7 f3 81 bd
       0.015905716 -0.4689517 -0.080117695 -0.06345349
000320 26 eb 75 bd 71 7a dc bc db 21 84 bd a1 06 60 3e
       -0.06003871 -0.026913853 -0.0645177 0.21877529
000330 65 72 f6 3c e4 fb dc 3c cb 2b b4 bc 39 67 80 3c
       0.030083844 0.02697558 -0.021993538 0.01567422
000340 c4 ef 89 3c c3 fa 93 3d 5c 3b 17 bb 26 13 44 3d
       0.016837962 0.072255634 -0.0023076152 0.047869824
000350 a8 0a 0b be 7a ed d8 bd 8c 22 6f 3d 5c 39 3e 3d
       -0.13578284 -0.1059217 0.058382556 0.04644142
000360 4b f8 a6 3c d0 f0 9d bc e3 e8 bd 3d b7 9a f2 3c
       0.020382067 -0.019279867 0.09272935 0.02961479
000370 82 19 ea bd 71 0a b5 3c 74 bb bf bd 32 11 44 bd
       -0.114306465 0.022099705 -0.09361926 -0.04786796
000380 53 e7 66 3e 47 98 8d bd f0 a5 b8 bc 90 ba 22 3d
       0.2254918 -0.0691381 -0.022540063 0.0397287
000390 04 8a 4b 3c 38 80 46 3c f5 60 8b be 65 36 2e be
       0.012423042 0.012115531 -0.2722241 -0.17012937
0003a0 64 bd f1 3c 18 2b ea bd b2 dc 94 bd 27 b7 85 3b
       0.029509254 -0.11434001 -0.07268657 0.0040806714
0003b0 e6 06 a7 3d 44 8d 9a bd e0 05 17 3e 1c 60 0e b9
       0.08155613 -0.075464755 0.14748335 -0.00013577979
0003c0 66 57 ec bd 41 87 86 bd d9 75 b0 bc d4 8e da bd
       -0.115401074 -0.065687664 -0.02154057 -0.106717736
0003d0 5f 5a 8a bc d5 b4 96 3b 84 07 c5 bd fb d3 c4 3d
       -0.016888795 0.0045991936 -0.09620574 0.096107446
0003e0 4e f2 36 bd 57 4e af 3a 0c f7 0f bd 1a 14 90 3d
       -0.044664674 0.0013374788 -0.03514771 0.07035084
0003f0 17 fc 96 bd ec e5 07 be 44 5c 7e 3d 1b 22 d9 ba
       -0.07372301 -0.13271302 0.06209971 -0.001656595

fc1.bias f4 [256]
000000 84 28 ea 3c 27 cb 20 3e 5f be e7 bb 8f 99 56 3e
       0.028583772 0.15702496 -0.0070722545 0.20957015
000010 8f 3e 89 3d 5c 52 60 be 28 49 c0 bd a7 5c d2 bd
       0.06701385 -0.21906418 -0.093889534 -0.10271578
000020 0d cd 67 3d 97 7f cb 3d e5 4d 49 bd 02 86 0c ba
       0.056592036 0.09936445 -0.04914655 -0.0005360545
000030 ba aa a7 3d a7 f0 f2 bd bd 9a 36 3e 12 06 e1 3c
       0.081868604 -0.11862307 0.17832465 0.027468715
000040 92 c0 7d bd da db c4 bb 3d ba 9c 3e ab 9e e2 bd
       -0.061951227 -0.0060076537 0.3061084 -0.1106542
000050 66 9b c7 3d 89 b8 52 3d a4 5d 9b 3c f4 d4 2f 3e
       0.09746437 0.051445518 0.01896555 0.17171079
000060 f0 21 e1 ba 07 3c 0e bd 55 c9 34 3e c4 e9 13 3d
       -0.0017176252 -0.034725215 0.17654927 0.03611161
000070 c1 df 90 3d 8f a7 a8 3d e4 73 3e 3e 1b e0 d8 ba
       0.07073928 0.08235084 0.18598896 -0.0016546281
000080 1f 97 49 be df de 80 3c db 6f 85 3d e6 58 9e bd
       -0.19686554 0.015731273 0.06515475 -0.077318
000090 fb c2 29 3e bd 9e 05 3e 4e f7 31 bd 11 44 bd 3d
       0.16578285 0.13048835 -0.04344874 0.09241498
0000a0 28 ac cd bd ae 81 bd bd 38 d5 56 3e 93 12 00 be
       -0.10042602 -0.0925325 0.20979774 -0.12507086
0000b0 80 58 30 3b 39 32 1d be ae b8 17 3e ed 30 6b 3e
       0.002690822 -0.1535119 0.14816543 0.22967882
0000c0 ce 9f 83 3d 00 d2 9e 3d e7 77 f8 bd e6 54 76 3e
       0.06426965 0.07754898 -0.121322446 0.24055824
0000d0 4e 0c 18 be 75 32 7c bb 86 2d 02 be 33 58 0c 3e
       -0.14848444 -0.0038482223 -0.12712678 0.1370552
0000e0 7d 18 a2 3c 7d 99 30 bd 97 42 25 3d 75 44 1b bc
       0.019787068 -0.043115128 0.04034671 -0.009476771
0000f0 09 61 6c 3c 7d 72 58 3e 2f c4 4f be ba 91 a0 3c
       0.014427432 0.21137424 -0.20289682 0.019600738
000100 c4 37 6f bd f0 29 b9 bc 70 bd c2 3c 4a d3 ed 3d
       -0.05840279 -0.022603005 0.023771971 0.11612566
000110 dc 42 8a 3e 4b cb 6c 3d f8 d9 b6 3d 6b 70 06 3e
       0.27004135 0.057811063 0.08928293 0.13128822
000120 c2 f8 d6 3c da 85 12 bd ea bd 29 bd 6a ad a3 3d
       0.026241664 -0.035772182 -0.04144088 0.079920605
000130 10 52 17 3e 1f 5a 1a 3d 49 0d 72 3e 93 65 ee bd
       0.14777398 0.037683602 0.2363788 -0.116404675
000140 bb be a0 3d ea 08 3f 3e ee ea 95 bd 55 b9 9d 3d
       0.07848879 0.18655744 -0.073202 0.07701365
000150 5b 55 21 3e f5 1d 79 bd 3b 35 19 3e 42 9b 08 3e
       0.15755217 -0.060819585 0.14961712 0.13340476
000160 8c 37 5c 3e 91 31 75 3e ac 01 18 3e 22 c2 96 3d
       0.21505564 0.2394469 0.14844388 0.07361247
000170 7b 9c 14 3b e1 f2 98 be bf e4 27 be 8b b4 97 3c
       0.0022676277 -0.29872802 -0.16395853 0.018518707
000180 a9 90 7c 3e 0b 3f d0 3c 09 8c 26 3e bb fd cc 3c
       0.24664558 0.025420686 0.16264357 0.025023332
000190 5d 4b 28 3e 7d cc 3f bb 13 98 c6 3d 38 c8 41 bd
       0.16434999 -0.0029266172 0.096969746 -0.047310084
0001a0 71 c0 88 bd e4 83 2a 3a 01 e8 89 bd 0e 1c 08 3e
       -0.0667733 0.00065046386 -0.06733704 0.13291952
0001b0 ca b7 75 3d be 70 08 bd fc da dd 3c 26 61 55 3e
       0.059989728 -0.033310644 0.027081959 0.2083784
0001c0 a8 f2 e5 3d bf 7e 1d 3e 08 1d e3 3c fc 8e be 3c
       0.11227924 0.15380381 0.027723804 0.02326154
0001d0 27 58 a5 3d 34 c8 a6 be 06 37 0d 3b 6f d3 3d be
       0.08073454 -0.32574618 0.002154769 -0.18537687
0001e0 4b 6a 89 3d d4 d6 11 3e 38 1c 11 3e 1c 35 77 3c
       0.06709727 0.14242107 0.14170921 0.015088346
0001f0 70 4c 69 bd 16 86 e5 3a 86 24 04 3e 9b 90 87 3d
       -0.056957662 0.0017511274 0.12904558 0.06619378
000200 72 b8 61 bd 15 59 7c 3e 16 a2 0f be c7 70 1b be
       -0.05510754 0.24643357 -0.14026675 -0.1517974
000210 d1 aa 46 3d 37 1c 85 3e 6b bb 10 3e 42 18 06 3d
       0.048502747 0.2599809 0.14133994 0.032737978
000220 e8 6c 65 be fa f1 f9 3d a9 81 10 be ca 9d cd bb
       -0.22404826 0.122043565 -0.14111961 -0.0062749134
000230 67 bc da 3d 28 b4 cd bd 32 3c 73 be fa e9 a4 bd
       0.10680466 -0.10044128 -0.23753431 -0.0805244
000240 aa 2d 2a 3e b5 c8 58 3d 75 1e 91 bd e6 f5 14 bb
       0.16618982 0.052925784 -0.07085887 -0.0022729575
000250 d7 bd 25 3e 3d 70 3c 3e 76 49 df 3d fb 1a 5c 3d
       0.161857 0.1840219 0.109026834 0.053736668
000260 68 45 17 3d 3f 39 37 3e 52 fa 0c 3e bb 4c a9 3d
       0.036931425 0.17892931 0.13767365 0.08266588
000270 42 65 bf 3d e5 ae ac 3c ac e0 01 3d 9a b6 50 be
       0.09345485 0.02107949 0.031708404 -0.20382157
000280 d4 e0 47 bd 5c 9f f6 bd d6 2d 5d 3b a7 e9 8a bd
       -0.048798397 -0.12042114 0.0033749244 -0.06782847
000290 c9 23 20 3d ff c7 ba 3c 83 1b f8 3d 05 9c 8c 39
       0.039096627 0.022800444 0.121146224 0.00026819124
0002a0 d4 95 aa 3d cd a3 4a 3e 5b 6a 0f 3e d1 5f af 3d
       0.08329359 0.19789048 0.14005415 0.085631974
0002b0 32 c9 62 3e 8d 49 e4 3d d2 64 1f 3e 03 89 37 3e
       0.22147062 0.11146841 0.15565804 0.1792336
0002c0 36 c5 49 3e a4 97 96 bd ce 09 5a 3e a5 3f 13 bd
       0.19704136 -0.07353142 0.21292803 -0.035949368
0002d0 f5 2d ca bd fd e8 10 3e 12 88 77 bd 7d 4e 46 be
       -0.09872047 0.14151378 -0.0604325 -0.19365878
0002e0 2f df e7 3d 51 a9 0d 3e f8 6a 54 3d 5d b7 0a be
       0.11321866 0.1383412 0.051859826 -0.1354651
0002f0 33 ca 7e 3c cc 65 76 3e 93 23 49 bd 2a 0b 81 bb
       0.015551138 0.2406227 -0.04910619 -0.0039380984
000300 69 4d 11 3e 54 cf 03 3e 14 d5 20 3e eb 32 67 bc
       0.14189686 0.12872058 0.15706283 -0.014111261
000310 77 1a b4 bb 1d 23 56 3d b0 19 6b 3c 57 fe 9e 3c
       -0.005496319 0.05227958 0.014349386 0.019408388
000320 b6 91 93 3b cc 7b 1d 3e af a4 f0 3c ce 28 a3 bd
       0.004503454 0.15379256 0.029375402 -0.07966767
000330 1f f8 28 3e 53 46 53 3d dc da 17 3e c8 67 fb 3d
       0.165009 0.05158074 0.14829582 0.12275654
000340 b3 87 24 be 38 1c c1 bd 3f b0 04 3e 1b b7 b3 3d
       -0.1606739 -0.094292104 0.12957858 0.08775159
000350 4a 76 0d 3e e3 95 12 3d a7 17 67 bd 03 aa 3a 3e
       0.13814655 0.035787474 -0.05641904 0.18228917
000360 fa 4a 80 3d 44 fd 2f 3e 34 8f 3c 3e 9f f2 00 3e
       0.06264301 0.17186457 0.18414003 0.12592553
000370 01 d6 3b 3e 50 8e 35 bd a1 ef 28 be 3e 94 61 be
       0.18343355 -0.044325173 -0.16497661 -0.22029206
000380 6a 8c d1 3d 8a 3c 85 bd 1c 8e b8 bd 35 2a f0 3d
       0.1023186 -0.065056875 -0.0901148 0.117268
000390 83 3b 92 3c 00 81 a2 3d c8 35 db bd be a2 00 3e
       0.017850643 0.07934761 -0.10703617 0.12562081
0003a0 ae 96 0e bd 88 ea e6 bd 42 ae 7c 3e 89 91 07 bd
       -0.034811668 -0.11275202 0.24675849 -0.033097778
0003b0 3a da 16 3e ef 16 34 bd e5 58 e5 3d 67 71 96 bd
       0.14731684 -0.043967184 0.11198596 -0.073458485
0003c0 16 f0 a9 3d 15 d9 09 be 04 90 31 3e ff 03 9e 3d
       0.08297746 -0.13461716 0.17340094 0.07715606
0003d0 a0 ee 0c 3e c9 28 5f 3e f6 98 b3 3d f5 0d 02 3e
       0.13762903 0.21792902 0.08769409 0.12700637
0003e0 29 f3 ad 3a b9 1f 29 bd c3 cb 36 3e b2 a1 2c bd
       0.001327132 -0.04129002 0.17851166 -0.042146392
0003f0 33 d5 20 3e c9 b3 09 bd cc 28 1d 3e d3 fd 37 3e
       0.15706329 -0.033618722 0.15347594 0.1796792

fc2.weight f4 [128, 256]
000000 fd 3f 21 bd da 7d f1 3d 15 96 c4 bc 82 92 2e 3e
       -0.039367665 0.117915824 -0.023997346 0.17048076
000010 28 f9 94 bd a6 16 4d 3d 9b 6e da 3d e0 6c c9 3c
       -0.07274085 0.050070427 0.106656276 0.024588048
000020 0b 02 a5 3d 80 c9 67 3d 54 5b 12 3d 91 9a f3 3d
       0.0805703 0.05658865 0.03573163 0.118947156
000030 55 47 19 3e e2 88 81 bd 62 89 37 bd 18 be ed bd
       0.14968617 -0.063249364 -0.044808753 -0.11608523
000040 44 83 d6 bd 86 3d b4 3d 4e 48 b5 bd 1f b5 b4 3d
       -0.10474256 0.08800797 -0.08851682 0.088236086
000050 be 26 99 bc 5e 70 56 ba aa 7b 7a 3d 56 e3 a3 bd
       -0.018695232 -0.0008180196 0.06115309 -0.08002345
000060 84 ab f9 bd 40 ed 93 bd 14 5c 41 bc 61 7d a7 bd
       -0.12190917 -0.07222986 -0.011801738 -0.08178211
000070 07 11 71 be db a9 c3 3d 27 83 21 3d 10 76 d1 bd
       -0.23541652 0.09553882 0.039431717 -0.10227597
000080 29 9f be be b6 d4 22 3d 31 66 f9 bc a8 0b c0 bd
       -0.37230805 0.03975364 -0.030444236 -0.09377223
000090 0f bf 12 3e 27 f0 11 bd cb 9b b6 3d e3 cf 12 3a
       0.14330696 -0.035629418 0.08916434 0.00056004355
0000a0 f3 ca 98 bd 66 42 07 3d e0 2d 0a 3d c8 4f 99 3d
       -0.074605845 0.033022307 0.033735156 0.0748592
0000b0 6e 55 94 bc 32 57 82 3d b6 4a d4 bc 92 94 e2 bd
       -0.018107142 0.063642874 -0.025914531 -0.11063494
0000c0 d1 b6 a0 3c 76 ec 7a 3d 7c 82 c7 3d 6c 77 19 3e
       0.019618424 0.061260663 0.09741685 0.14986962
0000d0 e9 d0 76 bc 80 38 21 3e bd 71 8e bd 05 f4 e1 3d
       -0.0150644565 0.1574421 -0.069552876 0.11032871
0000e0 dd 20 b4 bd d1 c1 b6 be 12 6b 9b 3d e7 72 8b bd
       -0.08795331 -0.35694745 0.075887814 -0.06809025
0000f0 62 fc 3a 3e 25 28 09 3e 54 09 7b 3e 1f 5c 9c bd
       0.18260339 0.1339422 0.24515277 -0.07634758
000100 1d 2f 67 3e 62 81 09 be 3e 66 90 3c fa 70 e4 3d
       0.22576566 -0.13428262 0.017626878 0.11154361
000110 c4 96 19 bc 29 8d 01 3e be 74 09 3e 8e 82 14 3e
       -0.009374324 0.12651505 0.1342344 0.14502928
000120 78 ce 65 bc 33 b5 0e 3d cd 35 bc bd 9f f0 86 3d
       -0.014026277 0.034840774 -0.09189949 0.065888636
000130 76 14 85 bc d6 5a 09 3e ba 84 e7 bb 96 17 37 3e
       -0.016245108 0.13413557 -0.007065383 0.17880091
000140 48 a0 0c be ff 1e 33 bd 23 0c d9 3d 52 e4 e7 3c
       -0.13733017 -0.043730732 0.10598018 0.028307114
000150 b3 14 15 3e 50 1a ae bd bc b8 d6 bc 3c 9e a8 3d
       0.14558677 -0.085011125 -0.026211135 0.08233306
000160 df 36 64 bd 7f 45 52 bd e9 61 f5 bc f0 73 88 bd
       -0.05571639 -0.051335808 -0.029953914 -0.06662738
000170 c5 9f 3a bd ca d1 c9 3d ab 2c 5b 3d 35 d2 0f be
       -0.045562524 0.09854467 0.053509396 -0.14045031
000180 85 14 20 3d 0a f9 4f 3d 85 75 3f bd 0d b4 b2 bd
       0.03908207 0.05077461 -0.046742935 -0.08725748
000190 07 a4 6b bd 11 2e 1d 3e 0f 1c 8b ba 63 f0 15 3e
       -0.057529476 0.15349604 -0.001061322 0.14642482
0001a0 55 c4 8c bd df 7c bc be 29 06 76 3c f0 2d 0a 3e
       -0.06873385 -0.3681402 0.015016117 0.13494086
0001b0 21 0d 72 3d fe 8a 5e 3e b7 82 25 3d 26 e3 45 3d
       0.059094552 0.21732709 0.040407863 0.04831233
0001c0 98 4c dc bd 9f 17 02 3e 25 d0 08 3e d7 5d 7e bd
       -0.107567966 0.12704323 0.13360651 -0.06210121
0001d0 a3 93 f7 3d 29 4c 98 3e 28 b3 50 bd c8 a7 f0 bb
       0.12088706 0.29745606 -0.050952107 -0.00734422
0001e0 30 e9 ac bd bb 90 87 bd 59 cf 5a bd 57 82 7a bc
       -0.084429145 -0.06619402 -0.0534204 -0.0152898645
0001f0 ca 8d e6 3d 3c 55 3c 3d 7d 86 9a 3c 7a 8d 67 3e
       0.11257513 0.045979723 0.018862957 0.22612563
000200 d4 96 e0 ba 79 93 90 bb cb bb c4 3d 2b 0b ac bc
       -0.0017134794 -0.0044121114 0.09606131 -0.021001419
000210 c6 30 f0 3d 86 4b f2 bc 46 3a ab 3b bf 65 15 3e
       0.11728053 -0.029577028 0.0052254526 0.14589594
000220 e6 73 1b be 61 0b 76 3d 22 ee 0f 3e 84 ed 2c bd
       -0.1518093 0.060069446 0.14055684 -0.0422187
000230 e6 4b 65 bb 2c 92 b0 3d ba 9d 33 be 9b 7b 0e 3d
       -0.0034987866 0.0862163 -0.17540637 0.034785848
000240 b2 16 9f 3b 78 ed 07 3e 61 db ee bd 65 ca 3d 3c
       0.0048550004 0.13274181 -0.11662937 0.011583899
000250 18 b9 1d be c6 be 49 3d 1d ea 07 bd 47 48 0e 3e
       -0.15402639 0.0492542 -0.033182252 0.13894759
000260 6d 46 9d bd 50 ff 11 be 99 25 94 bd 05 7e 1e 3e
       -0.07679448 -0.1425755 -0.07233734 0.1547776
000270 b2 cf c1 3d e6 5f 0e 3e 5c 64 72 3d 35 d0 0f 3e
       0.09463443 0.1390377 0.05917774 0.14044268
000280 8c b3 28 3e 79 12 f3 3d 69 ec b2 bd e6 a1 62 bd
       0.16474742 0.11868758 -0.08736498 -0.05533018
000290 57 d8 0b be bc a6 6c bd 74 50 2a be 29 49 bb 3d
       -0.13656746 -0.057776198 -0.16632253 0.091448136
0002a0 23 a6 57 be c6 53 0d ba 71 d5 c6 bd 9b 6b 18 bc
       -0.2105947 -0.00053912064 -0.097086795 -0.009302999
0002b0 aa af 3e bd c7 d9 23 be d1 02 f3 3d e4 ec 95 bc
       -0.046554245 -0.16001044 0.118657716 -0.018301435
0002c0 96 77 ea 3d 82 68 2a 3e 9e d1 4a bd d1 d1 4c 3e
       0.114485905 0.16641429 -0.049516313 0.20001914
0002d0 e6 93 0b bd b9 51 7f 3b 03 13 2d 3e 27 83 6c be
       -0.034076594 0.0038958623 0.16901784 -0.23096906
0002e0 1c 26 f8 ba c1 b7 f4 bb a0 5f 80 3d 80 34 37 3d
       -0.0018932256 -0.0074681942 0.06268239 0.044727802
0002f0 1d ce 97 3b 4d c0 96 bd cf 79 0a 3e c9 4a 34 3d
       0.004632725 -0.07360897 0.13523029 0.044016633
000300 dc 0d ad 3d 36 a5 6e bd 4e 3a 0e 3b 61 b0 b5 bd
       0.08449909 -0.058263026 0.0021702233 -0.08871532
000310 02 7e a6 bd 02 1b 1f 3e 99 69 41 3e 69 74 a0 bd
       -0.08129503 0.15537646 0.18887939 -0.078347035
000320 a0 14 e8 bd aa 49 84 3b 64 44 09 3e bd 3f a7 bd
       -0.11332059 0.0040371018 0.13404995 -0.08166454
000330 c0 d1 24 bc 42 13 58 3d 58 36 96 bc 9a ce 2f be
       -0.010059774 0.05275274 -0.01833646 -0.17168656
000340 2a 3b 10 be 26 84 98 3c 01 cf a4 3d 0e 6d d0 3d
       -0.1408507 0.0186177 0.08047295 0.101770505
000350 de 41 0e bd 67 11 21 bd 62 9e 41 3e f3 9b f4 3d
       -0.034730785 -0.039323237 0.18908074 0.119438075
000360 56 5a e6 3d 4a 62 0f 3e f8 27 cf bd 74 78 a7 3d
       0.11247699 0.14002338 -0.10115045 0.081772715
000370 5a b4 b2 bd a1 a7 c7 3b d1 9c f0 bd 58 24 f5 3d
       -0.087258056 0.006092981 -0.1174866 0.11969823
000380 33 6d 44 3e 91 a3 ff bd 93 77 1e be 34 fc 7f bc
       0.19182281 -0.1248237 -0.15475301 -0.015624095
000390 2f 75 06 3e 6b a5 00 bd b7 9d 7e 3e 6e 9f a3 3c
       0.1313064 -0.031407755 0.24864851 0.019973483
0003a0 67 b5 f8 3d 8d a3 77 3d 79 6c 3c 3c a2 9d 2e bd
       0.12143975 0.06045871 0.011500471 -0.0426308
0003b0 0a 58 8c bd 80 be 76 3e c6 ad 32 be ed 00 b4 bd
       -0.068527296 0.24096107 -0.17449102 -0.08789239
0003c0 59 ad 21 3b 88 97 48 be 4f e2 dd bd c6 64 94 bd
       0.0024669974 -0.19589055 -0.108341806 -0.072457835
0003d0 63 13 9f bc e5 5c b7 bd f4 aa 02 be 31 22 11 be
       -0.019418424 -0.08953265 -0.12760526 -0.14173199
0003e0 20 ed 86 bc d1 48 c6 3b d9 62 59 bd b3 60 b0 3d
       -0.016470492 0.006051161 -0.053072784 0.08612194
0003f0 d5 d7 98 bc 95 0c 36 3e bf c5 30 3d 17 65 ac 3c
       -0.018657604 0.17778237 0.043157335 0.021044297

fc2.bias f4 [128]
000000 53 e2 6a 3c e7 53 e6 ba 18 95 02 bd 67 f0 f9 bc
       0.014336186 -0.0017572612 -0.031880468 -0.03051014
000010 db f1 b6 bc b5 9e 9a 3d 7f a0 38 bd 97 8f f3 bc
       -0.022332123 0.07549802 -0.045074936 -0.029731555
000020 c7 5a 16 3d 58 b9 6d bb e6 e4 9e 3d fd 99 3b bd
       0.036707666 -0.0036273804 0.07758503 -0.04580115
000030 79 53 13 bd ba 23 6c bc a5 b3 be 3c d3 8f bd 3c
       -0.035968278 -0.014412815 0.02327902 0.02313987
000040 c4 b2 7e 39 3d a5 20 bd 57 4b 82 ba 4b ad 70 bb
       0.00024289923 -0.039220084 -0.0009940666 -0.0036724384
000050 7c ef 33 bd 04 d6 ad bd 8e 4e 88 bd 96 cb 3e 3d
       -0.043929562 -0.08488086 -0.06655608 0.046580873
000060 bb fb 8f 3c 5a 54 21 bc ac e4 b9 bc 9e 93 92 3d
       0.01757609 -0.009846771 -0.022692047 0.07157062
000070 6b 92 32 3c 06 e4 49 3b 2b 29 91 bd 96 1e a6 bc
       0.010899167 0.0030806079 -0.0708793 -0.020278256
000080 4f b8 50 bd 03 2d 6b bc 29 bd 03 be 86 bd df 3c
       -0.05095702 -0.014353993 -0.12865128 0.027312052
000090 f5 32 11 3d c2 6f f9 bb 7a 25 e8 bb ac d0 86 bc
       0.035448987 -0.0076121995 -0.0070845457 -0.016456924
0000a0 20 e7 cc 3d e1 81 fc bc 23 c7 26 3c 2b d5 a2 bc
       0.10005021 -0.03082365 0.010179314 -0.019877037
0000b0 e7 2c 4a 3c 78 52 a1 3d f7 01 14 3d 52 1b d0 3b
       0.012339807 0.07877058 0.036134686 0.006350913
0000c0 81 d4 8e 3c cf d9 36 3d ae c1 23 bc 8d d7 65 3c
       0.017435314 0.044641312 -0.009994907 0.014028442
0000d0 8f 19 e3 bb e9 0d 39 bd e4 ae a5 bc 26 b6 c6 3c
       -0.006930537 -0.04517928 -0.020224996 0.024256777
0000e0 81 51 c7 3b 88 d8 1a 3d f5 9f 8d 3d 95 94 1a 3d
       0.006082714 0.037804157 0.06915275 0.037739355
0000f0 ea 50 eb 3a 39 c0 a0 3c f9 d1 81 3c fb d8 29 3d
       0.0017953191 0.019622909 0.015847193 0.041466694
000100 98 63 34 bd af f8 6d 3d 80 a9 0a 3a 96 fb 18 3d
       -0.044040293 0.05809849 0.00052895397 0.037349306
000110 2f c2 43 3d c9 6c 36 3d 5f 58 1f 3d fc af fb 3c
       0.04779261 0.04453734 0.038902637 0.030723564
000120 f3 3c ed 3c db 4b 38 3d ef 35 d5 3a 31 41 80 3d
       0.028959727 0.044994216 0.0016266684 0.06262434
000130 cd 84 b4 bd 49 ed a3 3d bf 5a 1f 3c 0f bc a0 3d
       -0.08814392 0.08004243 0.009726225 0.07848369
000140 d1 ae cb bd df 0f 8f 3b 9a 12 c8 3c 9f 1e 90 3c
       -0.09945453 0.0043659057 0.024422932 0.017592726
000150 8e 5c 5e bb ba 6b 53 bd f7 92 e4 3c 5f 07 a3 3d
       -0.0033929679 -0.051616408 0.02790211 0.0796039
000160 87 ca a2 3d 67 1f 43 3c 03 0a 7e bc 49 ce 8d 3d
       0.07948785 0.011909342 -0.015505317 0.069241114
000170 46 56 7b 3d 6d 5f 48 3d c2 15 4f bd 13 3b 61 3d
       0.061361574 0.04891913 -0.05055786 0.05498798
000180 cc e9 0d 3a da 34 5d 3c e0 94 d7 3c 8b 72 eb bc
       0.00054135616 0.01350137 0.026316106 -0.028741142
000190 a8 c1 73 bd 0d c9 70 3d d5 21 38 3d 82 ca f3 3c
       -0.059510857 0.058785487 0.04495414 0.02975965
0001a0 c2 8e 97 3d 64 3d 35 3c 4a 52 15 bd d2 e0 c3 3c
       0.07400276 0.011062 -0.03645543 0.023910914
0001b0 f8 9d 21 bb b4 4f 78 bc 71 c6 9b bc d8 2a 79 bd
       -0.0024660807 -0.015155721 -0.019015523 -0.060831875
0001c0 48 2b ae 3d 17 32 06 3c 4f 49 7a 3d bf e5 4b bd
       0.08504349 0.008190653 0.06110507 -0.04977965
0001d0 a0 d6 97 3d df 8f 65 3d ee e9 13 3d f7 9f ec bc
       0.07413983 0.05604541 0.036111765 -0.028884871
0001e0 0c c9 7e bd 90 d4 09 3d 9b bd 77 bb f1 61 0a 3e
       -0.062203452 0.03364998 -0.0037802223 0.13513924
0001f0 5d 22 bf bc 67 1a 2b bd 25 76 76 bd 2c 13 48 bc
       -0.023331815 -0.041773226 -0.060171265 -0.012211602

fc3.weight f4 [4, 128]
000000 5d 8e 91 3e c1 36 9d 3d 92 0b a1 be f5 38 d4 3e
       0.28428927 0.07676459 -0.3145414 0.41449705
000010 a1 c9 39 bd b1 7b 4e 3e b7 05 54 3b b4 ce 72 bd
       -0.045358304 0.20164372 0.003235204 -0.05927916
000020 98 45 08 bd 72 3c 9e 3c 66 7f d2 3e 0f 5e 3a 3c
       -0.033269495 0.019315932 0.41112822 0.011374964
000030 48 ff 0c 3e 39 91 ed 3e 6c f0 05 be 85 13 7f 3e
       0.13769257 0.4639986 -0.13079995 0.2490979
000040 0f 2e 10 3f 56 97 54 be 1d b2 c9 3c f2 f3 1f bd
       0.5632028 -0.20760855 0.024621064 -0.039051004
000050 df 82 52 3e 9f 3f 9a 3e ac 79 fa bd 87 3e 73 bd
       0.20557736 0.30126664 -0.12230238 -0.059385803
000060 8a 4e 62 bd c3 20 3b 3e 7e 48 9f bc c4 30 c6 bd
       -0.055250682 0.18274216 -0.019443747 -0.0967727
000070 76 ea d2 bd b9 aa d6 3d bf 04 02 3e d0 8a 9d 3e
       -0.10298626 0.104817815 0.12697123 0.30769968
000080 f6 cc 22 bd de 95 21 3f 6a ee a7 3e 8c 81 94 bd
       -0.039746247 0.63119304 0.32799083 -0.072512716
000090 ac db 9c bd e9 2b 10 be 2d c8 96 bc ed 77 c3 3c
       -0.076590866 -0.1407925 -0.018405998 0.023860896
0000a0 cf cd 9a 3e b7 fe 53 be ed d5 5e bc 0f 35 0f bd
       0.30235144 -0.20702635 -0.013600809 -0.03496271
0000b0 d9 29 bb 3e f5 41 5e 3e 23 80 49 bd 7a 41 d5 bd
       0.36555365 0.21704848 -0.049194466 -0.10412879
0000c0 9b 79 7c 3e 66 0c 03 bd 32 77 6e be 59 fd 15 bd
       0.24655764 -0.031994246 -0.23287657 -0.036618564
0000d0 b1 e4 56 3e 8a 0d 54 3e fe 88 f9 bd 44 07 97 3c
       0.20985676 0.2070829 -0.12184332 0.018436082
0000e0 8f fd 1e 3f 6a 41 c9 bb dc 0e 80 bd 96 11 a4 bd
       0.6210565 -0.006141831 -0.06252834 -0.08011167
0000f0 de c3 d8 3d c0 15 f8 bd 6d 64 e3 3b 85 3c 86 3d
       0.10584234 -0.121135235 0.006939462 0.06554512
000100 9f 0d ca bc 12 be e9 bd 4e b6 2d bd 65 b3 c7 3d
       -0.024664698 -0.11413206 -0.042410187 0.09751014
000110 3b e3 bf 3e 8d 1f 90 3e 43 39 d2 bb 7f 70 f3 bd
       0.3747805 0.2814907 -0.0064155175 -0.11886691
000120 fd 88 e1 3d 6c 92 16 bd a9 f0 98 bd 75 95 7e bb
       0.110124566 -0.036760733 -0.07467777 -0.0038846408
000130 21 40 86 3e e0 dc 15 bc 24 37 2f 3e 20 67 8d bd
       0.262208 -0.009146899 0.17110878 -0.06904435
000140 43 44 48 3d 03 b3 39 3e 98 f5 86 3e 58 dd 8a 3c
       0.048893224 0.18134694 0.26359248 0.016951248
000150 ef 4b 39 3c f0 c1 f1 bc bf 4f 5b bd ac 1b a0 3d
       0.011309608 -0.029511422 -0.05354285 0.07817778
000160 76 fe c8 bd 50 82 b9 be 21 07 63 3e 4d f2 34 3c
       -0.098141596 -0.36232233 0.22170688 0.011044097
000170 c1 20 b0 bd f2 82 71 3c 6c f9 de 3d 65 6f b8 3c
       -0.08599997 0.014740692 0.10887417 0.022514055
000180 ed 6a 99 3e 81 4b c3 3e c4 a8 8d bd 3f 1f a3 3e
       0.2996439 0.38143542 -0.06916955 0.31859776
000190 93 44 b6 3d 07 22 fe bc 62 2e ec 3d 0b 55 1c be
       0.08899798 -0.031022085 0.11532284 -0.15266816
0001a0 8d 18 00 3a 76 80 10 be bf c0 09 be 10 24 8d 3e
       0.0004886471 -0.14111504 -0.13452433 0.27566576
0001b0 2d 92 d9 3c fd 23 75 3d 36 7f 4e 3e 86 70 c3 3d
       0.02655896 0.059848774 0.20165715 0.095429465
0001c0 96 f9 76 3e fa d7 6c bd 05 d1 2c bd 01 47 01 bd
       0.24118647 -0.05782316 -0.042191524 -0.031561855
0001d0 e0 8b 36 3c fb aa 8f 3e 1c 55 dd 3e 24 51 3f be
       0.011141747 0.28060135 0.43228996 -0.18683296
0001e0 b5 04 08 be 47 24 45 3d 1f 56 25 be 9f 01 1c be
       -0.13283046 0.0481303 -0.16146134 -0.15234993
0001f0 de e8 1c be ec e5 a5 bd b6 7b 9c bd 5c ab 90 3d
       -0.15323207 -0.08100495 -0.076407835 0.07063934
000200 d1 68 39 3e 97 ca fd bd cc c2 10 3e e6 47 9d bb
       0.1810639 -0.123921566 0.14136809 -0.0047998307
000210 2b 93 da 3d 5a c1 23 3d 49 d3 8b 3e ea 15 4b be
       0.10672601 0.039979316 0.27309635 -0.19832578
000220 a0 7d 05 3d 54 56 bc be 02 8a 65 3d e5 b2 32 3e
       0.03259051 -0.36784613 0.056039818 0.17451055
000230 7a a8 20 3e de a0 8e be c2 98 15 3d da 56 32 3d
       0.15689269 -0.27857107 0.036522634 0.04353986
000240 9b c5 10 bf ee c4 97 3c aa bd 1d 3e bd 4e 11 3c
       -0.5655152 0.01852652 0.15404382 0.00886887
000250 a3 4c c7 b9 04 0d 04 be 8a 81 24 3c 1c 79 1f 3d
       -0.00038013337 -0.1289559 0.01004065 0.03893386
000260 81 dd 2c 3d d2 da 94 be 69 43 87 3c 5a 32 ac 3d
       0.04220343 -0.29073197 0.016511636 0.08408041
000270 67 63 b4 bd a9 18 56 3c 35 75 d1 bd f9 4d 64 3d
       -0.08808022 0.013067403 -0.102274336 0.055738423
000280 42 b6 3d be 8f ed 44 be 5c 1e 01 3e 61 57 ab 3d
       -0.18526557 -0.19231246 0.12609237 0.083662756
000290 54 3e 24 3c 28 ff 0a bf 4b bf 84 be a1 24 90 3c
       0.010024626 -0.5429559 -0.25927195 0.017595591
0002a0 90 ae 60 bd fa b0 c4 bc d7 7a dc bd fd f0 4b 3a
       -0.054853976 -0.02401017 -0.10765617 0.00077797455
0002b0 6a a9 9a 3d 2c 23 79 be 6e 59 67 be 33 98 d5 3d
       0.075518444 -0.24329823 -0.22592708 0.1042942
0002c0 51 3a 87 bc 48 84 75 bd 32 dc 46 be 2b 7c ee 3d
       -0.0165073 -0.059940606 -0.19419935 0.11644777
0002d0 19 19 79 be dc f6 0b 3e 9b bb 6c 3c f7 88 87 bc
       -0.2432598 0.13668388 0.0144490255 -0.016544802
0002e0 fd 4d 7d bd 76 b7 2a bd 60 6e d4 3d 6b 52 83 3d
       -0.061841954 -0.04167887 0.10372615 0.06412204
0002f0 82 b8 e5 bd 9c 33 28 be 9a 85 31 be 67 84 3c 3d
       -0.11216833 -0.16425937 -0.17336121 0.046024706
000300 19 12 03 3c 96 16 79 3d b4 5d 00 be 87 38 02 be
       0.00799992 0.060812555 -0.12535745 -0.12716876
000310 4c a3 18 3b 60 06 ff 3d 24 ab c5 3d 4b 4a 29 be
       0.0023290692 0.12452388 0.09651783 -0.16532247
000320 03 08 7c bd df aa 19 3d a7 e0 5a 3d 01 15 d7 3c
       -0.061531078 0.03751647 0.0534369 0.026255133
000330 43 4c ce 3c c6 80 fe 3a ec b7 66 be 39 e3 9f 3d
       0.025182849 0.001941704 -0.22531098 0.07807011
000340 f0 e1 53 3d 69 0c 80 bd bf 52 db be 79 62 2a be
       0.051729143 -0.06252367 -0.42836568 -0.16639127
000350 bc 90 bc 3d 05 4b 97 bd c6 33 ca bd d7 af 2d 3d
       0.092072934 -0.07387356 -0.09873156 0.042404022
000360 45 9e 03 3e 60 b0 36 be a7 d9 10 3f e5 ed 5d 3d
       0.12853344 -0.17840719 0.5658211 0.054181952
000370 3c fd 71 3d 8e b8 6b be 0d d1 66 be aa 6d 86 be
       0.059079394 -0.23019621 -0.22540684 -0.26255542
000380 45 e6 82 be 43 28 21 3e 52 9b 92 3d f3 6e b6 bd
       -0.25566307 0.15738015 0.07158531 -0.08907881
000390 41 79 f4 3d 0a 3f 3a be b7 1a a0 bc fe 95 7e 3d
       0.1193719 -0.1818811 -0.019543989 0.062154762
0003a0 3e 6c 06 bc 89 a5 04 be 76 ca 7b be a9 6f 83 bd
       -0.008204518 -0.12953772 -0.24588951 -0.06417782
0003b0 1c 26 3b 3e 98 37 51 3c 13 bb 20 3e 70 29 dc bd
       0.18276256 0.012769602 0.15696363 -0.10750091
0003c0 a6 72 28 3e 5d 40 0b be 09 13 1c bd 3a e3 4d 3e
       0.16449985 -0.13598771 -0.03810409 0.20106211
0003d0 34 48 b8 be e8 66 c0 be e0 00 6c 3e 4b 42 6f 3e
       -0.35992587 -0.3757851 0.23047209 0.23365133
0003e0 fe 19 84 bc 53 44 6f 3d 84 d3 e0 3c 2a 77 0d 3e
       -0.016125675 0.05841477 0.027444609 0.13814989
0003f0 f3 89 94 3c 64 df 27 be e7 dd 38 3d 28 fe 7f be
       0.018132186 -0.1639381 0.045133498 -0.24999297

fc3.bias f4 [4]
000000 bb c0 45 3d 00 80 07 bd ef f6 9a 3d 9f 98 9f bd
       0.048279505 -0.033081055 0.0756663 -0.07792782
