checkpoint_critic.pth (torch_old, 169977 bytes, 5 tensors)

fc1.weight f4 [256, 33]
000000 b5 0d 6c 3d 53 bb 19 bd f6 9f 7f 3d 2b 77 87 bc
       0.05763026 -0.037532162 0.06240841 -0.016536316
000010 1b b3 5c bc 1b d8 34 3c ba 1f 65 3c ff 20 8d bc
       -0.013470436 0.011037852 0.013984615 -0.017227648
000020 d5 5b 52 3d 5e 1b 14 3d c7 67 ce 3c d6 d2 a8 bc
       0.05135711 0.036158912 0.02519597 -0.020608347
000030 6a ee 58 bd a9 ac ef 3b 3a 33 53 bc f8 4b ec bb
       -0.052961744 0.007314284 -0.012890631 -0.0072112046
000040 0a a5 6b 3c 85 c8 d7 bb e9 c9 7b ba 71 ca 51 3b
       0.01438261 -0.006585183 -0.0009604977 0.0032011534
000050 13 d3 87 3c 91 7d 4d bc 68 da be bc a8 06 82 bb
       0.01658014 -0.012542144 -0.023297504 -0.0039680786
000060 5d dc 11 bd cb 6d ba 3c 9c 41 87 bd c8 e4 bf bd
       -0.035610545 0.022757431 -0.06604311 -0.093698084
000070 2d f7 f2 bc 80 6a 4e bd 1e 11 05 3d be 99 25 3d
       -0.029658878 -0.050394535 0.032487027 0.040429823
000080 0e 99 0c bd 44 f6 89 3c f0 b1 b3 bd db b2 39 bc
       -0.03432565 0.016841061 -0.08774173 -0.011334146
000090 ff df c6 3c 31 65 75 3d 56 cd 21 3d 0d 49 2e 3d
       0.024276732 0.059910957 0.039502464 0.042550135
0000a0 8f 1c 26 bc 48 16 c4 3d e4 cc 0b bd f1 fd e4 3c
       -0.010138645 0.09574562 -0.034130946 0.02795312
0000b0 0c d0 8c 3c 0c 4f ce 3c 86 07 6b 3d 32 39 62 3d
       0.017189048 0.025184177 0.05738022 0.055230327
0000c0 d8 44 3c 3d ae f7 a4 3c a3 32 ac 3c f8 63 39 3d
       0.045964092 0.020137634 0.02102024 0.045261353
0000d0 da dd 1e bc 44 58 2c 3c 88 e1 f5 bc 73 bf 5c 3c
       -0.009696448 0.010519091 -0.030014768 0.013473379
0000e0 f6 f3 d4 3b c4 bf 84 ba c2 d6 c0 bb b0 46 2c bd
       0.006498809 -0.0010127951 -0.005884976 -0.0420596
0000f0 b1 4e b8 bd 05 9a ab 3d 30 f6 a3 3c d1 86 9b 3d
       -0.08999384 0.08378986 0.020014852 0.075940736
000100 a0 9a 9d 3b 85 48 63 3d e9 71 fe bc 16 0b cc ba
       0.0048096925 0.055489082 -0.031060176 -0.0015567269
000110 a4 61 0d 3d 4b d5 b1 3c 58 fd 23 bc d3 54 67 3c
       0.034516945 0.021708151 -0.010009132 0.014119345
000120 a5 6f 1f bd 1c 9f b3 ba f6 55 94 b8 61 c4 23 bd
       -0.038924832 -0.0013704034 -7.0732014e-05 -0.039982203
000130 d7 42 ad bb 88 a3 81 ba 8f 5a cb bb f5 ca c9 bc
       -0.005287509 -0.0009890655 -0.006205864 -0.02463291
000140 2d 27 75 3d 45 51 89 bd 0a d8 24 bc 8e 2c 95 bc
       0.059851814 -0.06704954 -0.010061273 -0.018209722
000150 88 cb 31 3c ad 80 83 bc 61 1b 0d bc d8 22 1b bc
       0.010851748 -0.016052568 -0.008612485 -0.009468757
000160 ed 3f 58 bd fa b7 02 bc 34 2b bd 3c d0 54 f3 bd
       -0.05279534 -0.007978434 0.02309189 -0.11881411
000170 66 39 05 3d 50 ae cb 3b f2 4d 5f bd 40 2e 51 bb
       0.032525443 0.006215848 -0.054517694 -0.0031918436
000180 81 a2 79 3d 1e 99 5e bd 3d d3 90 3c 5e 3d 7b 3d
       0.06094599 -0.054345243 0.017678851 0.06133782
000190 ef f9 3d 3d 58 6e c3 3d f8 8b b4 ba ad 56 3f bd
       0.046380933 0.09542531 -0.0013774624 -0.04671352
0001a0 af a2 96 bc cc 59 5d 3d 85 06 95 bc ad b9 6d 3b
       -0.01838812 0.054040715 -0.018191585 0.0036274001
0001b0 e9 35 86 3c 9d 6d f5 3c 47 3c 8a 3c 08 db ed 3c
       0.016383128 0.029959494 0.016874446 0.029035106
0001c0 a8 0d a0 bc 2f 31 2a 3d 5e ae 13 bd 12 1f 94 bd
       -0.019537762 0.04155081 -0.03605496 -0.07232489
0001d0 e7 c9 af 3c 93 55 ad bd ba 8e b5 bb d0 85 4b 3d
       0.02145858 -0.084635876 -0.005540696 0.04968816
0001e0 b1 d2 c6 3c 67 fb 41 bd 50 8a ba bb c2 53 17 3b
       0.024270387 -0.047358897 -0.0056927577 0.0023090695
0001f0 10 a6 79 bc 5b 87 a1 3b b1 13 c5 3c ff 96 b4 bc
       -0.015237346 0.0049294657 0.024057241 -0.022044657
000200 b8 a0 ca bc 16 6d a1 3d 80 c6 33 bc ad b3 4c 3c
       -0.02473484 0.078821346 -0.010972619 0.01249401
000210 42 36 c4 3b 09 31 99 bb 2c 4c 0c 3d a3 bc be bc
       0.0059879133 -0.004675035 0.03425233 -0.023283308
000220 71 ae db bc 2b 39 bd bb fb 6a 9c 3d b7 84 58 3c
       -0.026816579 -0.005774637 0.076375924 0.013215235
000230 e6 00 05 bd 73 f1 44 3d 9c 6a 83 bc 18 0d ab 3c
       -0.03247156 0.048081826 -0.016042046 0.020880267
000240 cc 3f 25 bd 5f d2 0f bc 01 fb f8 3c 66 9b 95 bd
       -0.040344045 -0.008778184 0.030393125 -0.073050305
000250 96 62 9f bd b4 5d 70 bc 2b a1 c8 bc 4b e4 b1 3c
       -0.07782476 -0.014670778 -0.024490913 0.021715304
000260 31 d7 99 bc 5a 0a 4d 3c f8 c8 b6 3c 8b c0 0b 3b
       -0.01877937 0.012514675 0.022312626 0.0021324481
000270 c2 5e a7 3c fa 78 f9 bc e9 fd 76 3a 38 8f 34 3c
       0.020430926 -0.030453194 0.0009421991 0.011020474
000280 2f f6 a5 bd 58 d9 92 3c b2 f2 97 bc 94 a1 88 3c
       -0.081035964 0.017925903 -0.018548343 0.016678609
000290 24 eb 1d 3e eb 28 81 bd 77 e4 43 3d f8 a9 2f bc
       0.1542173 -0.063066326 0.047825303 -0.010721676
0002a0 91 ea ae bb f2 9b 9a 3c 99 90 41 bc 6d 85 11 3d
       -0.005338021 0.018873189 -0.01181426 0.035527635
0002b0 a8 40 4d 3c a3 4f 7c bd db 5e 23 bc 14 08 07 bc
       0.012527622 -0.061599385 -0.009971346 -0.008241672
0002c0 08 f2 30 b7 14 73 0f bb b1 eb 11 3e a4 bf 92 bd
       -1.054677e-05 -0.002188866 0.14250065 -0.07165459
0002d0 eb 39 dd bc 2c df 1a bc d2 71 0c 3b e6 af 37 3c
       -0.027005157 -0.009452622 0.0021430147 0.011211371
0002e0 41 f2 11 b8 47 bf 5a bc c6 fb 68 bc e5 e2 12 3d
       -3.479631e-05 -0.013351268 -0.014220184 0.035860915
0002f0 ee 94 f5 3c cb 97 fe bc 4f 1b d1 bc c7 94 b7 bd
       0.029978242 -0.03107824 -0.025525717 -0.08963924
000300 ad 36 45 3c c5 3a 09 3c a4 1a 44 3d 0c 69 03 bc
       0.0120369615 0.008375828 0.04787697 -0.008020651
000310 c8 80 19 3c f4 1b 97 bc f8 25 ab 3b 2f 6e 90 bd
       0.009369083 -0.018445946 0.005223032 -0.07052266
000320 89 8f 91 bd d0 f4 10 bd 71 3b 81 bd 66 7b 24 3c
       -0.07107455 -0.03538972 -0.06310166 0.010039186
000330 c7 33 c8 3c e3 02 c9 3b 87 29 d6 3c 98 f5 11 3c
       0.024438752 0.0061343773 0.026142849 0.008908652
000340 e6 b2 85 bc a5 0a da bc d7 fe fc bc b5 5b b2 3c
       -0.016320657 -0.026616404 -0.030883236 0.021772245
000350 25 2c d0 bb 70 45 23 bc 83 9b 01 3d 2d f8 21 3d
       -0.0063529187 -0.009965286 0.03164245 0.03954332
000360 34 3f 12 3d ae 33 a1 3c ae 93 47 bb 2d bf 2a bc
       0.035704806 0.019677963 -0.0030453014 -0.010421556
000370 cb 35 d5 3b 50 aa 0a 3c 59 7a cb 3b 77 62 71 bc
       0.0065066568 0.008463457 0.0062096533 -0.0147329485
000380 c7 b9 6e bd c4 53 33 3d ce 4d 42 3b 64 81 43 bd
       -0.05828264 0.043781057 0.0029648426 -0.04773082
000390 54 17 8f bd 80 9d be 3a c6 b4 d9 3e 9b 19 fb bc
       -0.06986871 0.0014542788 0.42520732 -0.030651858
0003a0 96 33 f0 bc 7e f1 e0 3d f4 7d 4d bd 31 21 03 3d
       -0.029321473 0.10983561 -0.050168946 0.032014076
0003b0 de 68 86 bd 9d 2e 93 3c 49 e6 f1 3c f2 42 3c 3e
       -0.065629706 0.017966563 0.029528754 0.18384913
0003c0 7f 07 cd 3d 36 43 69 bd ba b2 18 bc 4b 3f 09 bd
       0.100111954 -0.056948863 -0.0093199555 -0.033507627
0003d0 9b 01 e4 3a 7a 45 39 bc c9 69 8c bd 21 42 33 3d
       0.0017395498 -0.011308068 -0.068561144 0.043764237
0003e0 72 fa 31 bd 50 15 e3 bb 6a 28 9d 3c 84 aa 82 bd
       -0.043451734 -0.006930031 0.01918431 -0.063801795
0003f0 f4 d8 88 3c 2d 16 ed 3c 95 67 af 3c 2f 1b a9 bc
       0.016705014 0.028941238 0.021411696 -0.020642845

fc1.bias f4 [256]
000000 fd e3 03 3e 0a cf 46 3e 5a fc 35 bc 98 20 32 3e
       0.1287994 0.19414917 -0.011107529 0.17395246
000010 7e a4 78 3c c1 3a 1d be e2 02 32 be 7b 5e bf bd
       0.015175937 -0.15354444 -0.17383912 -0.093441926
000020 f3 f7 84 bb 5d 17 0d 3e fc 40 84 bd 33 80 52 bc
       -0.004057878 0.13778444 -0.06457707 -0.012847948
000030 2a 1b 07 3e 86 9d ac bd 93 9c 09 3d 74 c7 fa bc
       0.13193956 -0.08428483 0.033596586 -0.030612685
000040 95 7b 2b bd 65 aa 14 be 85 30 41 3e 73 72 4a bd
       -0.041865904 -0.14518125 0.18866165 -0.049425554
000050 32 8a a0 3c fa 54 1c 3d 56 20 0f 3d 2c df f4 3c
       0.019597147 0.038166977 0.034942947 0.029891573
000060 63 a7 3b bd 6c 83 8a bd 54 07 71 3d 66 c5 48 bd
       -0.04581393 -0.06763348 0.05884488 -0.04901638
000070 81 bc 2a 3d b8 d6 3a 3d 17 86 cb 3d 47 b4 eb bd
       0.041683678 0.045614928 0.09937685 -0.115089945
000080 9d 20 30 be c9 04 c7 bd e0 84 9a 3d ec 9f 56 bc
       -0.17199941 -0.097177096 0.07544875 -0.013099652
000090 ab 38 21 3e ce ea 40 3d 19 1a b8 bd d4 5c d2 3d
       0.15744273 0.047098927 -0.08989353 0.10271612
0000a0 cb 2e 83 bd 0f 2e 11 be 94 30 0b 3e 89 78 e1 bd
       -0.064054094 -0.14177726 0.1359275 -0.110093184
0000b0 2f 5a 26 bd 92 a9 24 be 8f 81 d7 3d c9 2f a0 3d
       -0.04061335 -0.16080311 0.10522758 0.07821614
0000c0 47 c9 f2 3d 73 6b ab bd a7 dd db bd 27 78 89 3d
       0.11854797 -0.08370104 -0.10735636 0.0671237
0000d0 fc e6 04 be a4 d1 80 bd 7a 5a 14 be 19 4a d3 3d
       -0.12978739 -0.06289986 -0.14487639 0.103168674
0000e0 ed 15 5a 3c 97 d4 24 3d 87 e7 36 3d ae b6 75 3d
       0.013310892 0.040241804 0.044654395 0.05998867
0000f0 6d 5d a0 bd a4 93 5e 3e c1 26 27 be e4 7e c3 bc
       -0.078303196 0.21736008 -0.16323377 -0.023864217
000100 38 df 9f bd 8d 49 df bd e2 69 ba 3d e9 f1 2e 3e
       -0.078062475 -0.109027006 0.09102227 0.17084469
000110 73 e1 d0 3d 04 40 6c 3d a2 7c c5 3d e4 84 81 3d
       0.10199251 0.057678238 0.096429124 0.06324175
000120 84 d7 46 bd f4 13 e6 bd 82 1b d9 3c 80 bd e8 3d
       -0.048545375 -0.112342745 0.026502375 0.11364269
000130 62 83 41 3d d7 29 c2 bc 92 dd 35 3e c6 da aa bd
       0.047244437 -0.023701591 0.17760304 -0.08342509
000140 e2 6e 20 3c ca 85 2f 3e f0 23 06 bc 15 9c 9d 3d
       0.0097920615 0.1714088 -0.008187279 0.07695786
000150 68 ab 8e 3d ff f8 dd bd 18 10 07 3e 35 c4 24 3d
       0.06966287 -0.10838508 0.13189733 0.04022618
000160 94 ac 0b 3e 09 01 f6 3d d9 da dd 3d 6e 0f a3 3c
       0.13640052 0.12011916 0.108327575 0.019904818
000170 29 13 e1 3d 5d b8 31 be 0d 90 65 be d3 c4 9f 3c
       0.10989983 -0.17355485 -0.22418232 0.019503033
000180 47 c2 17 3e b6 de 62 bd 92 7e 27 3e c7 af 96 bd
       0.14820205 -0.055388175 0.16356876 -0.073577456
000190 f9 11 57 3d 63 96 72 bd 83 9f 13 3d 96 1b d0 bd
       0.052507374 -0.05922545 0.036040794 -0.101615116
0001a0 48 93 20 be ea 74 df 3d c7 95 ca bd 91 b1 2c 3e
       -0.15681183 0.109109715 -0.09891849 0.16864611
0001b0 09 85 16 3d bc a6 89 bd b9 7f 4c 3e a1 9a 39 3e
       0.036747966 -0.06721255 0.19970597 0.18125392
0001c0 38 de db bd 95 ad b6 3d 08 db 9e 3d d2 af d7 bd
       -0.10735744 0.08919827 0.07756621 -0.10531582
0001d0 c0 b5 55 3d b3 20 22 be 70 e7 75 3d 6d b6 4e be
       0.052175283 -0.15832786 0.06003517 -0.20186777
0001e0 a0 39 1b 3e a7 73 2f bb ed b8 e8 3d c4 f2 2c bc
       0.15158701 -0.0026771815 0.11363397 -0.010555927
0001f0 22 a3 fc bd 51 d5 e2 3d 1d c7 ba 3d 30 ad ca 3d
       -0.123358026 0.11075843 0.09120009 0.09896314
000200 6f 96 2d bc dd 83 0e 3e 0b 21 01 be fa 28 03 be
       -0.010594948 0.1391749 -0.12610261 -0.128086
000210 25 32 8e 3d 16 e2 25 3e 95 03 4a 3d 7b ca 98 bc
       0.06943158 0.16199526 0.049319822 -0.018651238
000220 bd d7 f3 bd 9a 0b cb 3d 9d 6e 58 be fe a0 db bd
       -0.11906383 0.09914322 -0.21135946 -0.10724066
000230 3e 73 fa 3d 9e 81 f4 bd 8d 82 0e be d7 8a 37 bd
       0.12229012 -0.11938785 -0.13916989 -0.044810142
000240 16 33 b8 3d 50 69 cc bd cc 0c 2c bd 60 da a0 bd
       0.08994119 -0.09981024 -0.04200439 -0.07854152
000250 be 69 cb 3d f7 a9 0c 3e 13 e5 f7 3b 77 79 34 3c
       0.09932278 0.13736711 0.0075651496 0.011015288
000260 af 42 d8 bc 0a af 5d 3d b6 a1 22 3e 32 54 40 3d
       -0.026398985 0.05412201 0.15882 0.046955295
000270 3b 3c 1b 3e bf 93 86 bd 6b b1 e3 3c 4b e5 0d be
       0.15159695 -0.06571149 0.02779456 -0.13857
000280 4a 99 5b 3d 5d 61 74 bd 12 3b 6b bc db 81 3b be
       0.053612985 -0.059663165 -0.014357345 -0.18311255
000290 07 86 c8 3c d9 f2 74 3d f6 3e 0a 3e b4 fa 6a bb
       0.024477972 0.05980191 0.1350058 -0.0035854997
0002a0 c5 e5 e9 bc 5a 73 c4 3d a9 54 c6 3c f7 32 20 3e
       -0.028551945 0.09592314 0.024210291 0.15644442
0002b0 38 c4 d2 3d 6e 9e 33 3e 3a b9 ff 3c 73 3f ab 3d
       0.10291332 0.17540905 0.031216253 0.08361711
0002c0 09 89 3e 3e 12 46 13 3c 2e da 2f 3e 97 ea d9 bd
       0.18606962 0.008988874 0.17173073 -0.106404476
0002d0 70 26 16 bd e4 c5 46 3d 4a 01 11 be 03 42 19 bd
       -0.03665775 0.048528567 -0.14160648 -0.03741647
0002e0 b4 30 09 3d 04 f3 c5 bc 94 0c af bc 00 e7 ed bc
       0.033493713 -0.02416373 -0.021368302 -0.029040813
0002f0 fd be c7 3c 9b fa 2c 3e fc fc 9b bc 1d b0 ec 3d
       0.024383062 0.16892473 -0.01904153 0.115570284
000300 b1 a3 26 3c b3 b8 ff 3d e8 9b 26 3e ea 8e e7 bc
       0.010170863 0.124864005 0.16270411 -0.028266389
000310 35 d6 54 bc 0a 26 a2 bd 8a f6 a9 bd 8d af 89 bd
       -0.012990524 -0.079174116 -0.08298977 -0.06722937
000320 d1 bb 7d bd 75 94 b9 3d dc 86 88 3d 6f 81 53 bd
       -0.061946694 0.09061519 0.066663474 -0.05163711
000330 a8 06 ab 3d 11 78 ef 3c b5 27 52 bb 58 96 b3 3d
       0.08350879 0.029232057 -0.0032067124 0.0876891
000340 01 8c 9d bd ed c9 fd 3c 45 d7 0f 3e 3d 0a f7 3d
       -0.07692719 0.030980075 0.14046963 0.120625
000350 2e f3 cb 3d 3f e8 5d b9 5c 85 12 3a f8 99 ee 3d
       0.09958492 -0.00021162721 0.000558933 0.11650461
000360 6d 54 92 3d fd d4 5d 3d 39 f9 61 3d d7 83 d4 3d
       0.07145009 0.0541582 0.055169318 0.10376709
000370 cb 17 b0 3d 0e 3a 17 be b6 8b 28 be bc 7e 49 be
       0.08598288 -0.1476824 -0.16459545 -0.19677252
000380 00 08 33 3e 49 c2 ec bd fa e1 25 be 24 01 f9 3c
       0.1748352 -0.115604945 -0.16199484 0.030396052
000390 74 b2 b4 bd c3 0d 7b 3d ea 80 5b bd c2 09 c9 3d
       -0.088231 0.06129242 -0.05358974 0.09816314
0003a0 f4 e1 1b be e2 8c 3a be 3e 44 a8 3d 46 d3 28 bd
       -0.15222913 -0.18217805 0.08216141 -0.04121711
0003b0 0f 5a 9c 3d 04 7a aa 3d 96 42 97 3d 1e 95 a5 bd
       0.07634365 0.08324054 0.07385747 -0.080850825
0003c0 e6 32 2b 3d 8a 27 30 be cb 8b 2f 3e 34 9f d1 bb
       0.041796587 -0.17202583 0.1714317 -0.0063971523
0003d0 36 9f 20 3e 74 3a e1 3d 98 02 eb 3d 59 24 9f 3d
       0.15685734 0.10997477 0.11475104 0.07770605
0003e0 1d cb 16 3e 2a a5 d4 bd 05 82 f3 3d ab 3c a0 bd
       0.14725919 -0.10383065 0.11890034 -0.078240715
0003f0 4c e7 14 3e 27 b5 df bc 57 81 a1 3d e8 1a b8 3d
       0.14541358 -0.02730806 0.07885998 0.08989507

fc2.weight f4 [128, 260]
000000 7b 8f 07 3d 82 ae 49 bc 24 c0 c0 3d b6 86 d3 bc
       0.033095818 -0.012309672 0.09411648 -0.025821071
000010 47 d2 ce 3d af e9 18 bd 8c ec a0 bd 05 3e a7 3d
       0.10098701 -0.037332233 -0.07857618 0.08166126
000020 71 f9 1e bd 58 4f 66 bd 5f a3 c1 3d 46 23 9a bc
       -0.038812105 -0.05622801 0.09454989 -0.018815648
000030 3e 08 ed bd b9 43 31 3d 46 6d 80 bd b5 b1 e1 3c
       -0.11573838 0.043277476 -0.06270842 0.027550558
000040 72 6c dd 3b e4 37 59 bc 4a ab c7 bc ce 88 c1 3d
       0.0067573125 -0.013257954 -0.02437367 0.094499215
000050 79 8c aa 3d 80 1b 96 bd 8a 13 73 3c 46 2c 85 bd
       0.08327574 -0.07329464 0.014836201 -0.06502585
000060 e0 0f 27 3d 2c 74 a5 3c f9 46 a5 3d d5 be 00 be
       0.040786624 0.020196997 0.080701776 -0.12572797
000070 97 78 80 3d 00 38 1f bd f9 59 80 3d af 58 1d 3d
       0.06273001 -0.038871765 0.06267161 0.038414653
000080 bb 25 5b 3d eb bd 21 3c 9a 6b c9 3d 3d c8 32 bd
       0.05350278 0.00987194 0.098349765 -0.043647993
000090 9c e3 8c 3d b7 80 f6 bc 01 70 a9 3d bd f8 b6 bb
       0.068793505 -0.030090673 0.08273316 -0.005583851
0000a0 29 fd 11 bd b4 6b 47 3e f3 56 70 bd 61 f2 70 bc
       -0.035641823 0.19474679 -0.05867667 -0.014706225
0000b0 da a3 a1 3c 61 57 40 bd c7 f9 e4 3c a2 f0 11 bd
       0.01973145 -0.04695833 0.027951134 -0.035629876
0000c0 ca 70 9e bd f1 94 a7 bc 85 f3 8c bc c6 49 83 3c
       -0.077363566 -0.020456763 -0.017205963 0.016026389
0000d0 41 1c 8a bd 87 9b 5d bd 62 b0 9e 3d cf eb df bd
       -0.0674367 -0.0541034 0.07748486 -0.10933649
0000e0 15 e9 c1 bd 56 ea 94 3d 72 71 ee bd d6 86 74 3d
       -0.09468285 0.072712585 -0.11642732 0.059698902
0000f0 7a 8a 56 ba db dd 53 3d 39 23 ad 3d ba 99 28 3d
       -0.0008184087 0.05172525 0.08453984 0.04116223
000100 12 d9 41 3d d5 2d fe bc eb cb b4 bc 28 9e 95 3d
       0.047326155 -0.031027714 -0.022069892 0.073055565
000110 d7 32 a5 bd 7d be c2 bd f9 57 41 bd f5 8f 05 bd
       -0.080663376 -0.09508989 -0.047203038 -0.03260799
000120 8f ee 24 3d 89 83 39 3d 3e 92 91 bd 80 0c 89 bd
       0.04026657 0.045291457 -0.071079716 -0.06691837
000130 f9 33 51 bd c4 b1 9c 3d 09 f8 3e 3d 0b 9b 07 bd
       -0.051074956 0.076510936 0.046623264 -0.033106845
000140 cb 8a 9d bc 89 9b 1d bd c7 e5 5e bd 45 5d 61 be
       -0.01923122 -0.038478408 -0.05441835 -0.22008236
000150 f4 f9 11 3d e7 53 85 3d bf 8e 31 3c c9 c2 c2 bd
       0.035638765 0.06510144 0.010837256 -0.095098086
000160 40 43 0b be 06 3e a4 bd 40 e9 c0 3b 73 24 44 be
       -0.13599873 -0.080196425 0.0058871806 -0.1915453
000170 d1 17 05 3d 50 c2 c0 3d 71 9d 4b 3d b7 a5 73 3c
       0.032493416 0.09412062 0.049710695 0.0148710525
000180 fc 28 22 3c 10 44 17 bd bc b6 ae 3c e3 fa ee 3c
       0.009897467 -0.036930144 0.021327369 0.029172366
000190 36 f6 8a bd b9 47 59 bb 20 50 a7 3d ca 0f 93 bc
       -0.06785242 -0.0033154322 0.081695795 -0.017951865
0001a0 69 1a de bd e0 a5 83 3d 0a 48 c6 3d 93 f5 6b 3d
       -0.10844881 0.064281225 0.09681709 0.057607245
0001b0 a1 c0 8e 3d 10 08 0c bb fe 7c 1b bd ea 70 86 3d
       0.06970335 -0.002136711 -0.037961 0.065645054
0001c0 d4 81 09 3c 71 8b 8a bd 0e d9 e9 bc 4c 33 35 bd
       0.00839277 -0.067648776 -0.028545883 -0.044238374
0001d0 91 7c 90 bd 46 2b 33 bd e6 9c 42 bc 51 85 83 3b
       -0.07055009 -0.04374244 -0.011878228 0.0040136953
0001e0 c3 21 78 bd f5 fc 3e bd 11 c6 5f bd 23 c5 37 be
       -0.060579073 -0.046627957 -0.05463225 -0.17946295
0001f0 4c fc 30 3b f3 d0 52 bc 39 b4 77 3d f1 bf 76 bc
       0.002700585 -0.0128672 0.060474608 -0.015060411
000200 09 86 56 3d cf 9b ae 3d 9e 8d 81 bd 47 b1 8c 3d
       0.05237392 0.08525812 -0.063258395 0.068697505
000210 5c 2f 03 3d 2b ca 8a bd ea 89 ca 3c 99 c7 b8 3d
       0.032027587 -0.06776842 0.024723966 0.09022445
000220 cf de 62 3d a5 2e 92 3d dd 57 80 3d ef 20 71 3d
       0.055388268 0.07137803 0.062667586 0.0588693
000230 f3 c1 be 3b a1 8a 68 bb 67 d4 3b bb 31 9f 9e 3d
       0.0058214604 -0.003548302 -0.0028660537 0.07745207
000240 62 c1 7d 3d 83 9f 51 bd e4 0f d7 bc 31 93 67 bd
       0.061952002 -0.051177513 -0.026252694 -0.056536857
000250 2e fe 8a 3c 2e 98 8b bc 84 0d ec bd fb 96 d5 3c
       0.016966905 -0.017040338 -0.115260154 0.02607297
000260 41 b3 6a bb 81 f7 ff 3d d6 36 c3 3d 66 40 56 bc
       -0.003581241 0.124983795 0.095319435 -0.013076877
000270 54 40 4f bd eb 27 a9 bc ba bd a5 3d b1 24 c8 3d
       -0.050598457 -0.020648917 0.08092828 0.09772623
000280 86 46 c6 bd 16 af 86 bc 8f de 9a 3c 90 ea e9 3c
       -0.0968142 -0.01644091 0.018904952 0.02855423
000290 36 1d a4 3d 2d 67 6d bd 6f 16 14 3d e2 dd 67 3d
       0.08013384 -0.057959724 0.036154207 0.05660809
0002a0 b9 15 07 3e 86 06 92 bd 57 d5 21 3d 9b bf d9 bd
       0.1319188 -0.071301505 0.039510097 -0.10632249
0002b0 5a bf 64 bd 0b 12 89 bd fe 46 62 3d 64 39 81 bd
       -0.05584655 -0.066928945 0.055243485 -0.063097745
0002c0 cf f9 ee bb 7d 4c 04 bd 44 5b a0 b9 99 04 d1 3d
       -0.007292963 -0.032299507 -0.00030585576 0.10205955
0002d0 bf 17 a1 bd 24 3c bc bc 00 5f 7b bd b9 4d 41 3d
       -0.07865857 -0.022977896 -0.061369896 0.047193263
0002e0 d6 9a cd bd c7 ed ea bc 8d bf 8a bc 73 10 aa 3c
       -0.10039298 -0.028677834 -0.016937042 0.020759797
0002f0 17 7b 61 3d 96 2d 5b 3d 18 ad 95 bd 42 5f d4 bb
       0.05504903 0.05351027 -0.07308406 -0.006481082
000300 2a 08 cb bd 90 02 b9 3d 5a 93 9c bb 00 c2 64 bc
       -0.099136665 0.09033692 -0.004778308 -0.013962269
000310 8a c4 ec 3d 82 c6 ec bd f3 3a 6c 3d 54 a3 0b bc
       0.11560924 -0.115613 0.057673406 -0.008522827
000320 d4 33 63 bb da b0 32 3d 8d 94 04 bd 00 14 4b 3c
       -0.0034668343 0.04362569 -0.03236823 0.012394905
000330 99 93 4b bd ea f8 3e 3d f5 83 0e bb 4b 47 cb bd
       -0.049701307 0.0466241 -0.0021746133 -0.099257074
000340 3d cd 76 bd e1 35 47 bc ca fb 9d 3c bc 59 4b 3d
       -0.060254324 -0.012158842 0.019285101 0.049646124
000350 61 d2 33 3d 16 c9 6b bd 69 cd 19 bd 71 da f7 bd
       0.043901805 -0.057564817 -0.03754941 -0.12102211
000360 2f 9e 80 bb 47 56 8d bd 68 b1 4c 3c 8d e0 19 bc
       -0.003925107 -0.06901222 0.012493469 -0.009391916
000370 1f 3d fd 3b d5 d2 df 3d 13 a4 2b bd 2b 11 81 bd
       0.0077282335 0.10928885 -0.04190452 -0.06302103
000380 25 ea e4 3a 5a d8 66 be 8f 27 90 bd 9f 61 21 3c
       0.00174648 -0.22543469 -0.07038795 0.009849935
000390 7c e6 aa bd af 2b 10 3d 40 b9 84 3d 10 13 a9 3d
       -0.08344743 0.03519791 0.06480646 0.08255589
0003a0 fd 64 95 bd 26 dd 84 3c cb 61 74 3b 71 c4 d3 bd
       -0.072946526 0.016218733 0.0037289734 -0.103402026
0003b0 33 af 89 3d 56 c3 2a bd dd 0c 11 3c 10 ef f0 3c
       0.0672287 -0.041690193 0.0088531645 0.029410869
0003c0 ac 78 92 bd 95 59 82 3d 63 ca af bc 00 c8 f5 bc
       -0.071519226 0.06364743 -0.02145881 -0.030002594
0003d0 b0 e6 9b 3d e4 a0 03 be 36 1f 56 bd a3 0d ae bc
       0.076123595 -0.12854344 -0.05227586 -0.021246737
0003e0 b6 59 f5 bc 7f a8 29 3b ba 0e 7b bc b6 61 53 3d
       -0.029950004 0.0025887785 -0.015323335 0.051606856
0003f0 ec 54 6d 3d 60 36 85 3d 67 41 53 be a8 e9 ca bc
       0.057942316 0.06504512 -0.20630418 -0.02476962

fc2.bias f4 [128]
000000 fe 35 28 bc 26 9c bf 3d 11 7d 0f 3c 62 46 58 bd
       -0.010266779 0.09355955 0.0087578455 -0.052801497
000010 80 66 48 3d da 84 0a 3d 2a 49 f9 bc d3 fb ad 3a
       0.048925877 0.033818103 -0.030430395 0.0013273902
000020 23 17 36 3d 47 6c 69 3c b1 8a b5 bb b6 b1 68 3d
       0.04445566 0.014247007 -0.005540215 0.056810103
000030 17 44 d2 3c 74 60 9d bd d4 83 0b bd d8 52 7a bd
       0.025667233 -0.076844126 -0.034061268 -0.061114162
000040 87 40 19 3d 9c 3b aa 3c 62 d8 de bb a0 8d 0b bd
       0.037415054 0.020780377 -0.006800697 -0.03407061
000050 e1 75 79 3d db d2 9f 3d 92 07 1f bd 27 05 f9 bc
       0.060903434 0.07803889 -0.03882558 -0.030397965
000060 0a ce 5e 3d ab 81 bc 3c 37 aa bb 3d 91 c8 42 bd
       0.054395713 0.02301105 0.09163325 -0.047554556
000070 20 42 a4 3d 7e 4a 06 3c 92 04 78 3d 64 3f 42 3b
       0.08020425 0.008196471 0.060551234 0.0029639835
000080 61 65 ac 3c a2 04 3f bd 1a 78 e2 bb 66 69 49 bd
       0.021044435 -0.046635278 -0.00691129 -0.04917278
000090 5e a0 86 3d 4d 60 f7 3c 5e 03 ce 3d bb 58 f0 3c
       0.06573556 0.030197287 0.10059236 0.029339185
0000a0 b9 3b 85 3c eb 66 21 3d 91 66 47 3c d7 22 cc bc
       0.01626383 0.03940479 0.01217045 -0.024918957
0000b0 13 17 09 39 2c 2a d1 3b 2e 7a 1c 3d fc d7 4a bc
       0.00013073934 0.006383201 0.038202457 -0.012380596
0000c0 40 06 3a 3c 82 f7 d9 3b 00 19 9c bd a9 9d 88 bd
       0.011354029 0.0066518197 -0.07621956 -0.06670696
0000d0 b7 59 da bc a0 ae 29 bd 2b 5b e2 bc dc 7c 86 bd
       -0.026654107 -0.0414263 -0.027631363 -0.06566784
0000e0 38 ad 7f 3d 9d 35 85 3b b1 53 8f bc 83 33 b9 bc
       0.062421054 0.004065229 -0.017495962 -0.02260757
0000f0 6d c9 6e bd 9a 6d fe 3c 9c 65 dc 3d 8c 0f 89 3d
       -0.058297563 0.031058121 0.10761568 0.066924185
000100 5d 97 a4 3a e7 b9 99 bc d2 21 04 3d 87 62 7d 3c
       0.0012557317 -0.018765403 0.032258816 0.015465385
000110 19 94 2d bc 02 65 e1 3c 06 31 ca 3c 5e 07 0b bd
       -0.010594391 0.027513985 0.02468158 -0.033942573
000120 eb aa 59 3d b2 47 8d bc d1 0b 3e bd 8c 05 5b 3b
       0.053141516 -0.017246101 -0.046397988 0.0033420054
000130 28 c9 a8 3d 76 b9 a2 bd 66 db bf 3b ef 00 fa bc
       0.082414925 -0.0794553 0.0058550118 -0.030518023
000140 af 31 2e 3d bb c6 6f 3c eb 04 c2 39 ac c1 3a bb
       0.04252785 0.014634783 0.00037006228 -0.0028496785
000150 d4 d6 9a 3b 55 5f 97 3d 8e 2d 54 bc 78 92 9b 3d
       0.0047253165 0.0739123 -0.012950314 0.07596296
000160 0e 66 94 3d 14 0c ab 3d ff 1b b9 3d 22 11 1c 3d
       0.07246028 0.08351913 0.09038543 0.038102277
000170 15 8d c1 bc 9b 14 c4 3d a1 88 61 bd 53 4c c8 3c
       -0.023626843 0.09574243 -0.05506194 0.024450457
000180 16 d2 ad bd fa 22 bc bc 03 1c dd 3d 20 aa e0 3c
       -0.08487336 -0.022965897 0.107963584 0.027424872
000190 6e e5 a5 bc 15 32 8a bc 6d ce 30 bd 45 71 8e 3d
       -0.020251002 -0.016869584 -0.043165613 0.06955198
0001a0 15 ec be bd be bc c0 3c f3 d5 c1 3c 0d 6f 11 bd
       -0.09322373 0.0235275 0.02366159 -0.035506297
0001b0 b3 ef da 3b 4b 0f 4c 3d 11 95 eb 3b 64 90 03 3d
       0.0066814064 0.049819272 0.007189401 0.032120124
0001c0 d5 7b a2 bc 63 c0 53 bd 5d d7 81 3d dd 9c 51 bc
       -0.019834438 -0.051697146 0.063399054 -0.012793747
0001d0 ac e1 37 3b 6b b3 ec 3b 25 86 6b bd 19 1b d7 3a
       0.0028058095 0.0072235367 -0.057500977 0.0016411274
0001e0 f6 e9 6c bd f6 a4 27 3d 71 29 8f 3d 78 5d ba 3c
       -0.05784031 0.040928803 0.06990326 0.022749647
0001f0 fc 13 5d 3b cd 69 a8 bd ce 0b 67 bd 66 93 c4 3d
       0.0033733835 -0.08223305 -0.056407742 0.095984265

fc3.weight f4 [1, 128]
000000 23 db 7b 3d 3b 30 b3 3d ae 66 77 3d 61 4f 29 be
       0.061488282 0.087494336 0.060400657 -0.16534187
000010 05 0f 79 3e 32 24 92 3d 4f 36 3d 3d 13 e6 49 3d
       0.24322136 0.0713581 0.04619437 0.04929168
000020 fb b5 19 3d e6 7d ae bd 36 b9 15 be bc ac c2 3d
       0.037527066 -0.08520107 -0.14621434 0.09505603
000030 70 40 98 3d b1 be 96 bd 2e 53 10 be 69 94 a5 bd
       0.074341655 -0.0736059 -0.1409423 -0.080849476
000040 9b 08 49 be a9 10 01 3d 2b 38 20 3d fb 50 d5 bd
       -0.19632189 0.03151003 0.039116066 -0.104158364
000050 c0 ef 32 3d 37 80 43 3e 96 a8 5f bd 89 f7 c9 bd
       0.043685675 0.19091879 -0.054604135 -0.09861667
000060 8d f2 d9 bd fc 04 8c bd dc 28 ab 3d cd 14 e6 bd
       -0.10641966 -0.06836888 0.08357403 -0.11234436
000070 bc f4 7c 3d 62 e1 b0 3d c1 77 1a 3d 3f 7b 00 be
       0.061756834 0.08636738 0.037711862 -0.12547015
000080 d6 eb a6 3d 8c 9d 0a be fa fe 26 be 9e 5f 2c be
       0.08150451 -0.13536662 -0.16308203 -0.1683335
000090 72 f6 89 3d e4 1b 4d 3e e5 59 77 3d c8 01 1c bd
       0.06736459 0.2003017 0.060388464 -0.038087636
0000a0 5b d4 32 3d cc f9 a2 3d 60 1b 7d 3e 1f 61 a8 3d
       0.04365955 0.07957801 0.24717474 0.082216494
0000b0 b1 62 4a 3e 38 f0 f9 bd 68 49 29 3e 28 ad b5 bd
       0.1976421 -0.12204021 0.16531909 -0.088709176
0000c0 cf 67 75 be 3a 2d e5 bd 52 8e 06 be 9a a6 ec bd
       -0.23965381 -0.11190267 -0.13140228 -0.11555214
0000d0 a9 62 26 be 6c 39 82 be 78 9a 73 be 6e c0 24 be
       -0.16248573 -0.25434434 -0.23789394 -0.16089031
0000e0 c8 95 2c 3d e7 89 3e bd 2b 79 d6 bd 4b 86 bc bd
       0.04213503 -0.046518233 -0.1047233 -0.09205302
0000f0 fe eb a9 bd f3 29 5f 3d a2 79 0e 3e 08 21 ad 3d
       -0.08296965 0.054483365 0.13913587 0.08453566
000100 26 a7 c9 bd 81 db 1b be 5c 65 92 bd a8 bd 28 3d
       -0.09846334 -0.15220453 -0.07148239 0.041196495
000110 7d 76 5a bd e5 9e a7 bd 6f 3d 66 bd a0 cf 48 be
       -0.053335655 -0.081846036 -0.05621093 -0.19610453
000120 b5 9c 21 3e 31 58 28 3d cb 7f 1d bd 8d fc 5c be
       0.15782435 0.04109973 -0.03845195 -0.21580715
000130 24 05 2d 3d a4 11 fc bd 95 44 a2 3d 19 60 f9 3d
       0.04224123 -0.12308052 0.07923237 0.12176532
000140 08 60 62 3d 9a 49 7c 3d 08 65 3c 3d fd bd 86 3d
       0.055267364 0.06159363 0.04599479 0.06579206
000150 c5 52 54 3d 08 f3 52 3d b0 65 b8 bd 69 f9 91 3d
       0.051836748 0.051501304 -0.0900377 0.07127649
000160 69 b3 b5 3d 9f dd 95 3d 9a ca 99 3d 3c a3 d8 3d
       0.088721104 0.073176615 0.07509346 0.105780095
000170 49 c1 06 be 02 ae 8a 3d d0 8b c7 3d 40 03 57 3d
       -0.1315967 0.067714706 0.09743464 0.052493334
000180 c0 7d 38 bd e8 70 15 be bb 74 56 3d 82 8f 8c 3d
       -0.0450418 -0.14593852 0.052357417 0.068633094
000190 f3 df 9a 3d bf f7 69 bd c1 af 95 bd 65 b6 1f 3d
       0.07562246 -0.057121035 -0.07308913 0.038992304
0001a0 7a 38 d9 bd 5a 0a bd bd 63 2c 27 3e fa be 09 3e
       -0.10606475 -0.0923049 0.16325526 0.13451758
0001b0 78 38 42 3d 03 52 81 3d b3 59 3c 3d 73 7b 9f bd
       0.047417134 0.063144706 0.04598398 -0.07787218
0001c0 19 34 a4 bd 43 14 ea bd 9e ce b3 3d d7 c8 fe bd
       -0.08017749 -0.11429646 0.087796435 -0.12440651
0001d0 23 a0 65 be 21 96 7b 3d 0a 1a 53 be e5 f7 65 3d
       -0.22424369 0.06142247 -0.20615402 0.056144614
0001e0 12 ea 3e be 45 cf 54 3d 91 71 80 3d 60 6e 3a 3d
       -0.18643978 0.05195548 0.06271661 0.045515418
0001f0 b2 44 ab 3d 8f 7b f6 bd bd 73 cc bd 48 3b 7f 3e
       0.08362712 -0.12035286 -0.09983013 0.24924958
