checkpoint_critic.pth (torch_old, 169977 bytes, 5 tensors)

fc1.weight f4 [256, 33]
0.058938332 -0.026205895 0.046143662 -0.03834505 0.009642347 -0.028843056 0.033206966 -0.004178117
0.0056570848 0.045403108 0.023799505 -0.029367087 -0.007632624 -0.00032356958 0.0094103785 -0.043372616
0.024741417 -0.04495354 -0.024112044 -0.014203402 -0.025542542 0.003319014 -0.0047040274 0.040748622
-0.023729313 0.016585113 -0.06443441 -0.08719827 -0.055302363 -0.050394535 0.0259853 0.040429823
-0.0032808115 -0.013146642 -0.09054676 0.017241094 -0.006129635 0.021850273 0.017385133 0.030688869
-0.024398334 -0.053242136 -0.011682867 0.010379823 0.024800582 0.040250912 0.085299134 0.07645001
0.02549388 0.0018526755 0.028214734 0.013666385 -0.0039474308 -0.004681357 -0.062062748 0.021856626
0.104195066 -0.002188466 0.04514989 -0.028559072 -0.07442606 0.02434222 0.020014852 0.060371604
0.0048096925 -0.06448853 0.011830828 -0.009774324 0.0021075353 0.041332792 -0.0039141644 0.044180818
-0.034344304 -0.01824192 0.059741594 0.034020215 0.010740303 -0.026116068 0.024325008 -0.11302406
0.0013894141 -0.011473488 0.019987525 0.02196931 -0.007520021 0.017460955 -0.00031568733 -0.003895277
-0.014953084 -0.006871349 -0.006453825 -0.033605147 0.1034063 0.0002930838 -0.01837134 -0.0031918436
0.066868916 -0.054345243 0.33998168 0.06532809 -0.0172931 0.103329994 0.047388878 -0.009719124
0.004745568 0.02445947 0.024154173 0.011797684 -0.01333032 0.04846303 0.012920588 0.016269732
-0.054106273 0.040684767 -0.02681636 0.0013059924 -0.0073288362 -0.013740681 -0.04546832 0.01816916
-0.019393904 -0.055323675 -0.015761187 -0.0059385574 0.01372448 0.06896266 0.027839482 -0.00575529
-0.02473484 0.07503986 -0.010972619 0.26103523 0.01775472 -0.018803436 0.10153768 -0.031879585
0.014393631 -0.025759289 0.040719725 0.012385755 0.05530801 0.047914207 -0.009841357 0.008180159
-0.010761326 -0.044483617 -0.036743537 -0.05782102 0.05556558 -0.03286157 -0.09073259 0.037200194
0.017023733 0.07150593 0.024836676 0.00017301782 0.00445952 0.005927465 -0.016695969 0.034088872
-0.057012733 0.017925903 -0.04161627 0.016678609 0.06354228 -0.02619326 0.008036684 -0.016277328
-0.0017374562 0.004820457 -0.016801417 0.02567988 0.049592026 -0.05063324 0.0070990166 0.017212993
-0.051384233 -0.0040033935 0.09114493 -0.10886675 -0.06492424 -0.025396783 0.0056264894 0.022753855
0.0014837523 -0.0030147315 -0.0048135854 -0.0067221546 0.0033537652 -0.034990586 -0.025828503 -0.060418844
0.021688847 0.03413401 0.04787697 -0.017672373 0.009369083 0.20744081 0.12829447 0.0022477622
-0.07457704 0.010675904 -0.012971944 -0.0025664533 0.032956246 0.025538731 0.074201 -0.025552912
0.030405533 0.042180058 -0.02835196 0.07628743 0.004009795 0.04534467 0.0020404754 0.022752928
0.0872396 0.021433365 -0.04451917 -0.040230922 0.027544567 -0.008980547 0.04134191 -0.046090577
-0.027951501 0.027260028 -0.00509847 -0.04773082 -0.053347845 0.0014542788 0.04024041 -0.022528473
-0.07557281 0.03895184 -0.015176856 -0.011569005 4.9154565e-05 0.061879665 0.009838794 0.008689906
0.036451735 -0.06603958 0.014419239 -0.051632244 -0.0365541 -0.005156602 -0.05044544 -0.07577349
0.07627077 0.054094516 0.046498235 -0.006838976 0.088301286 0.027906194 -0.042539112 -0.026279258
00000000: 5269 713d bfad d6bc 2301 3d3d b30f 1dbd
00000010: effa 1d3c 4648 ecbc 0704 083d 96e8 88bb
00000020: 115f b93b 9cf8 393d 2ef7 c23c 3f93 f0bc
00000030: 171b fabb c6a4 a9b9 fd2d 1a3c 7ca7 31bd
00000040: 83ae ca3c 3421 38bd 9f86 c5bc 63b5 68bc
00000050: 983e d1bc d183 593b 3e24 9abb 07e8 263d
00000060: fa63 c2bc 81dd 873c 30f6 83bd 0295 b2bd
00000070: bb84 62bd 806a 4ebd 20df d43c be99 253d
00000080: e202 57bb 0365 57bc 9470 b9bd 323d 8d3c
00000090: 1bdb c8bb 58ff b23c 446b 8e3c 3967 fb3c
000000a0: 04df c7bc 6d14 5abd 7f69 3fbc 2210 2a3c
000000b0: 972a cb3c 24de 243d 50b1 ae3d d391 9c3d
000000c0: 8bd8 d03c 79d5 f23a 9622 e73c f9e8 5f3c
000000d0: 7359 81bb 1266 99bb 8235 7ebd ab0c b33c
000000e0: 3964 d53d 5e6c 0fbb 17ef 383d b7f4 e9bc
000000f0: b16c 98bd 5669 c73c 30f6 a33c 3748 773d
00000100: a09a 9d3b 9012 84bd 17d6 413c 7c24 20bc
00000110: 931e 0a3b 934c 293d 6442 80bb f2f6 343d
00000120: 9dac 0cbd 1470 95bc 9ab3 743d c858 0b3d
00000130: 19f8 2f3c 5df1 d5bc 3d45 c73c 2979 e7bd
00000140: 001d b63a 4cfb 3bbc e1bc a33c fbf8 b33c
00000150: 826a f6bb 470a 8f3c d682 a5b9 e747 7fbb
00000160: c8fd 74bc 0e29 e1bb 9c7a d3bb 8da5 09bd
00000170: afc6 d33d 0ba9 9939 7e7f 96bc 402e 51bb
00000180: 92f2 883d 1e99 5ebd 1412 ae3e bcca 853d
00000190: 42aa 8dbc ad9e d33d d71a 423d f63c 1fbc
000001a0: b680 9b3b 3a5f c83c f9de c53c 134b 413c
000001b0: 6a67 5abc 2c81 463d e0b0 533c 1a48 853c
000001c0: 8a9e 5dbd 12a5 263d fcad dbbc d52d ab3a
000001d0: bc26 f0bb 9820 61bc fd3c 3abd 7dd7 943c
000001e0: f7df 9ebc 149b 62bd 9b1d 81bc 3b98 c2bb
000001f0: a4dc 603c 4c3c 8d3d a00f e43c df96 bcbb
00000200: b8a0 cabc 80ae 993d 80c6 33bc 69a6 853e
00000210: 5972 913c aa09 9abc fdf2 cf3d 2b94 02bd
00000220: 44d3 6b3c 2505 d3bc bac9 263d 9fed 4a3c
00000230: a78a 623d b041 443d a53d 21bc 1306 063c
00000240: 4650 30bc 7434 36bd 6480 16bd bcd5 6cbd
00000250: bc98 633d db99 06bd 02d2 b9bd 3b5f 183d
00000260: 5b75 8b3c b371 923d 4976 cb3c 1e6c 3539
00000270: 2a21 923b 2e3b c23b fcc5 88bc c6a0 0b3d
00000280: 2f86 69bd 58d9 923c d275 2abd 94a1 883c
00000290: 7422 823d 3f93 d6bc 4cac 033c 0858 85bc
000002a0: 5bbb e3ba edf4 9d3b 20a3 89bc 9d5e d23c
000002b0: 0221 4b3d cd64 4fbd de9e e83b 4302 8d3c
000002c0: 4678 52bd e62e 83bb 31aa ba3d 88f5 debd
000002d0: 00f7 84bd ea0c d0bc 6a5e b83b 4b66 ba3c
000002e0: 777a c23a cd92 45bb 48bb 9dbb 8545 dcbb
000002f0: d8ca 5b3b 4a52 0fbd 4c96 d3bc c079 77bd
00000300: cfac b13c 1bd0 0b3d a41a 443d a7c5 90bc
00000310: c880 193c 5d6b 543e a05f 033e 314f 133b
00000320: d9bb 98bd fde9 2e3c 4788 54bc f131 28bb
00000330: 21fd 063d 9a36 d13c b2f6 973d 5754 d1bc
00000340: 0615 f93c ffc4 2c3d 5f42 e8bc 963c 9c3d
00000350: 9964 833b 55bb 393d 7fb9 053b 5964 ba3c
00000360: adaa b23d 0695 af3c bc59 36bd 2ec9 24bd
00000370: 25a5 e13c 2523 13bc 2256 293d 79c9 3cbd
00000380: 8cfa e4bc 6c50 df3c 1111 a7bb 6481 43bd
00000390: 4583 5abd 809d be3a 21d3 243d a28d b8bc
000003a0: ebc5 9abd f78b 1f3d 59a8 78bc ed8b 3dbc
000003b0: 502b 4e38 8875 7d3d e532 213c 1c60 0e3c
000003c0: 6a4e 153d c23f 87bd ac3e 6c3c 557c 53bd
000003d0: c1b9 15bd b6f8 a8bb e19f 4ebd 222f 9bbd
000003e0: d933 9c3d 3692 5d3d ef74 3e3d 7d19 e0bb
000003f0: 4ed7 b43d 889b e43c 7e3d 2ebd 9947 d7bc

fc1.bias f4 [256]
0.12229983 0.17858173 -0.005184662 0.17017052 -0.0078920275 -0.1631957 -0.15731785 -0.038970973
0.013162727 0.08591069 -0.01843134 -0.0528566 0.13662511 -0.0079816785 0.08977475 0.022649884
-0.042088915 -0.11525665 0.15179925 -0.10450475 0.034396328 0.05594885 0.060820732 0.0314381
-0.09490162 -0.062452372 0.035422947 -0.062210005 0.042593103 0.06447729 0.086718105 -0.04344677
-0.1631214 -0.06288847 0.07962052 -0.0050043114 0.17236017 0.11445134 -0.064505674 0.09032967
-0.14183106 -0.10414182 0.05426559 -0.17842504 0.0028925552 -0.09955098 0.0992284 0.13220516
0.14253213 -0.086897746 -0.14981486 0.11198819 -0.1350936 -0.07736226 -0.11036856 0.10497979
-0.026868444 0.012197642 0.0330763 0.020544983 -0.15200478 0.17012894 -0.18397768 -0.034361847
-0.0843246 -0.09242484 0.09296787 0.14968754 0.048138343 -0.02237653 0.07240503 0.12693302
-0.026208682 -0.13373649 0.014063114 0.059325755 0.0765346 -0.028237496 0.09653235 -0.1300482
0.060085967 0.15441354 0.0067604003 0.12944928 0.15414466 -0.11590299 0.14780992 0.07864434
0.12030493 -0.0056630867 0.13048688 0.047311276 0.099437386 -0.15106171 -0.18541874 0.009467693
0.07652329 -0.040928904 0.13409038 -0.042436473 0.008548953 -0.0088327695 0.028155793 -0.039786607
-0.15424778 0.12737995 -0.062066454 0.16684295 0.0501834 -0.03966464 0.16510813 0.16962709
-0.10549874 0.096886635 0.074777074 -0.1499053 0.07668131 -0.1701609 -0.042159587 -0.11286654
0.12599805 0.061183132 0.18427876 0.028025813 -0.13170196 0.13389125 0.095876515 0.1196616
-0.02383423 0.1661184 -0.15373097 -0.20327577 0.056622528 0.09822095 0.005940837 -0.08073938
-0.1726137 0.087023646 -0.18913583 -0.109975785 0.08167437 -0.13696782 -0.06496872 -0.13997215
0.11634815 -0.028734894 0.016241238 -0.11136284 0.093332864 0.16823913 0.039878163 -0.028978063
-0.04625033 0.11296026 0.18160826 0.07468097 0.15778339 -0.07774034 -0.036675006 -0.11087312
0.09459468 -0.12905137 -0.041078772 -0.22901647 0.038957104 0.06604891 0.11379649 -0.040151075
-0.02667773 0.13112849 -0.021350358 0.10562074 0.14706929 0.16923364 0.03908412 0.06916234
0.12558553 -0.019487074 0.16060472 -0.11407071 -0.053594742 0.03978091 -0.13539603 -0.036301263
0.022536235 -0.022128044 -0.012102238 0.023511827 0.025497321 0.16898546 -0.03658368 0.13667603
0.01009396 0.14727545 0.13685162 0.035413872 -0.05116446 -0.08833505 -0.0647046 -0.13447057
-0.07684944 0.08047755 0.056235492 -0.13425824 0.12268347 0.027083026 -0.014498853 0.09045279
-0.110979885 0.029527673 0.20155159 0.09953631 0.10719052 -0.033888392 0.003161196 0.13439359
0.060843013 0.060376342 0.06133828 0.051436514 0.08081223 -0.07448515 -0.18369833 -0.1578612
0.15789562 -0.11979125 -0.18266685 0.0629432 -0.032942306 0.03703928 -0.0064394665 0.12691444
-0.112865984 -0.22300115 0.11154451 -0.10159035 0.05227953 0.037678443 -0.009627838 -0.12942116
0.017247073 -0.1253183 0.13283078 -0.015151698 0.09732172 0.09528029 0.087510444 0.092785016
0.13698691 -0.09186293 0.10642752 -0.11546499 0.13978699 0.010185638 0.106494576 0.17619604
00000000: 5578 fa3d 21de 363e 19e4 a9bb 2e41 2e3e
00000010: 904d 01bc c61c 27be ee17 21be 07a0 1fbd
00000020: 7aa8 573c f2f1 af3d 52fd 96bc 2a80 58bd
00000030: 74e7 0b3e 96c5 02bc d3db b73d 408c b93c
00000040: 6d65 2cbd ae0b ecbd 4371 1b3e 9606 d6bd
00000050: 2ae3 0c3d 9f2a 653d 291f 793d 3dc5 003d
00000060: c85b c2bd 0fce 7fbd a717 113d ebcf 7ebd
00000070: 1b76 2e3d ab0c 843d 4399 b13d 3ef5 31bd
00000080: 4c09 27be accb 80bd 1510 a33d 35fb a3bb
00000090: 2f7f 303e 7765 ea3d 8d1b 84bd c3fe b83d
000000a0: 293c 11be 4e48 d5bd 9845 5e3d 0eb5 36be
000000b0: 0691 3d3b 62e1 cbbd 4238 cb3d ca60 073e
000000c0: f1f3 113e 72f7 b1bd 1169 19be 105a e53d
000000d0: fa55 0abe 1b70 9ebd e908 e2bd a5ff d63d
000000e0: 361b dcbc 9ed8 473c 047b 073d f44d a83c
000000f0: 24a7 1bbe 4836 2e3e a564 3cbe 02bf 0cbd
00000100: 60b2 acbd 3c49 bdbd f065 be3d b147 193e
00000110: b62c 453d fc4e b7bc 1749 943d bbfa 013e
00000120: 97b3 d6bc 38f2 08be fa68 663c 90ff 723d
00000130: 2cbe 9c3d 5252 e7bc c1b2 c53d 5b2b 05be
00000140: b41c 763d 951e 1e3e 5986 dd3b 5a8e 043e
00000150: 19d8 1d3e 8c5e edbd 7c5b 173e 4910 a13d
00000160: 6e62 f63d 6a91 b9bb 5a9e 053e 78c9 413d
00000170: d4a5 cb3d ecaf 1abe 69de 3dbe 621e 1b3c
00000180: 3eb8 9c3d 11a5 27bd fd4e 093e ded1 2dbd
00000190: e810 0c3c 52b7 10bc faa6 e63c 48f7 22bd
000001a0: 21f3 1dbe e46f 023e 6539 7ebd e1d8 2a3e
000001b0: 1c8d 4d3d 6477 22bd 1b12 293e b9b2 2d3e
000001c0: b90f d8bd 806c c63d b924 993d c680 19be
000001d0: 170b 9d3d a93e 2ebe 88af 2cbd 9326 e7bd
000001e0: a205 013e 2a9b 7a3d 92b3 3c3e 6496 e53c
000001f0: e1dc 06be ca1a 093e e85a c43d 2411 f53d
00000200: 0140 c3bc f11a 2a3e a76b 1dbe 8627 50be
00000210: 06ed 673d 1128 c93d 5aab c23b b05a a5bd
00000220: a5c1 30be 7439 b23d d3ac 41be fc3a e1bd
00000230: e444 a73d 4b41 0cbe 520e 85bd dc54 0fbe
00000240: f047 ee3d 7165 ebbc 580c 853c 3312 e4bd
00000250: 4d25 bf3d e146 2c3e 4957 233d 6763 edbc
00000260: fc70 3dbd b557 e73d 84f7 393e 56f2 983d
00000270: f891 213e 5436 9fbd 8838 16bd 7211 e3bd
00000280: dbba c13d 0b26 04be 3742 28bd 4b83 6abe
00000290: 7c91 1f3d a744 873d 220e e93d 7475 24bd
000002a0: 418b dabc 8c46 063e f2e6 aebc b04f d83d
000002b0: 5599 163e 954b 2d3e ac16 203d fca4 8d3d
000002c0: 7e99 003e 5ba3 9fbc 9075 243e e89d e9bd
000002d0: 2986 5bbd 4ff1 223d 42a5 0abe a2b0 14bd
000002e0: e99d b83c df45 b5bc 7748 46bc e09b c03c
000002f0: c2df d03c 860a 2d3e c5d8 15bd cdf4 0b3e
00000300: 2361 253c 60cf 163e d522 0c3e 230e 113d
00000310: d391 51bd 02e9 b4bd d883 84bd a7b2 09be
00000320: 3d63 9dbd 6ad1 a43d 3057 663d fe7a 09be
00000330: 7941 fb3d 39dd dd3c 998c 6dbc 503f b93d
00000340: 6c49 e3bd 05e4 f13c 8a63 4e3e b1d9 cb3d
00000350: b486 db3d 8ece 0abd 112c 4f3b 799e 093e
00000360: 8636 793d 2f4d 773d d93d 7b3d 18af 523d
00000370: e280 a53d ac8b 98bd 6a1b 3cbe 5ea6 21be
00000380: 64af 213e 1d55 f5bd 050d 3bbe 5de8 803d
00000390: 83ee 06bd 80b6 173d 2902 d3bb dcf5 013e
000003a0: 4826 e7bd 6a5a 64be 7371 e43d 9a0e d0bd
000003b0: 0f23 563d b654 1a3d 14be 1dbc fb86 04be
000003c0: bc49 8d3c 7153 00be cb04 083e d43e 78bc
000003d0: 9c50 c73d 5022 c33d ad38 b33d 1206 be3d
000003e0: 4c46 0c3e a222 bcbd acf6 d93d e978 ecbd
000003f0: 5224 0f3e aae1 263c d419 da3d bc6c 343e

fc2.weight f4 [128, 260]
0.047917005 0.021667605 0.17354235 -0.001686084 0.0961646 -0.03943811 -0.06784734 0.081997566
-0.018303763 -0.058132682 0.06105918 -0.0050796317 0.028620515 0.09880755 -0.029528838 0.02992584
0.015669936 -0.009561451 0.07802215 0.0840874 0.09290544 -0.04014932 0.03924028 -0.11780309
0.008010314 -0.008545599 0.052663196 0.023846546 0.12461568 0.010542252 0.08159589 0.065313175
0.07572966 -0.024843806 0.07345902 -0.03121802 0.0911656 -0.021663405 0.09096008 -0.038997598
-0.06896787 -0.05119415 -0.052890074 0.027893718 -0.0046149995 0.017835984 0.075229086 -0.008570849
-0.06140743 0.03724309 -0.0037305043 0.048890404 0.013874297 0.0013034444 0.034855053 -0.04252396
-0.12781106 0.09086962 -0.050333828 0.034192145 0.013873688 0.042516027 0.023748662 0.02992549
0.053220965 0.10093292 -0.009506971 0.07210604 0.003983662 -0.0414822 -0.08239952 -0.036371056
0.026597293 0.10348304 -0.04273015 -0.0043105544 -0.030476531 0.11497766 0.07119802 0.069592796
0.038524624 -0.018914025 0.0022035304 -0.0012030337 0.032945078 0.06038174 0.066764124 -0.029168192
-0.04525934 -0.118518844 0.076014265 -0.008035369 0.0043366007 -0.10114741 0.05416713 0.05428749
-0.020650038 -0.114959516 0.05694651 0.066029176 -0.009958305 -0.061654147 0.039251264 0.047556367
-0.03197339 0.10603365 0.009360542 0.08870002 0.082344465 0.018605582 -0.0048415796 0.06614103
0.079276994 -0.019206056 0.036165055 -0.034535237 -0.016212188 -0.048271738 -0.02674712 -0.0021902968
0.020575488 0.031090243 -0.047309797 -0.06512016 -0.0022003741 0.0074192532 0.11435168 0.018454403
-0.022088267 0.119608715 -0.02452682 0.11531195 0.091119684 -0.057074573 0.013513662 0.0849212
0.013652642 0.07171285 0.006650991 0.12564786 -0.00091257336 -0.065685265 -0.013216855 0.042095643
0.076156415 -0.03983208 -0.02067797 0.02789128 0.01750599 -0.03013267 0.0019453081 0.07541452
0.019913558 0.11096969 0.07204827 0.075842515 -0.03667745 0.03897528 0.098129004 0.084387675
-0.022641556 0.06541048 0.026376577 0.031175693 0.07213036 -0.05074934 0.07102833 0.0620563
0.11944265 -0.012936961 0.098082535 -0.07111748 -0.015623916 -0.043960053 0.09581171 -0.0182248
-0.0630857 -0.04641186 0.024083996 0.060274407 -0.08103503 0.040188737 -0.07373675 0.07767544
-0.11416609 -0.027174545 0.032706905 0.059215542 0.08882398 0.068565406 -0.07062393 -0.005102466
-0.011689569 0.10497953 -0.0061044726 0.013664635 0.06500211 -0.06364973 0.11163786 -0.0031960746
-0.017025856 0.067555085 0.008180375 -0.060843628 -0.053934317 0.026375277 0.026402814 -0.025165962
-0.07674422 0.010589843 0.022818698 0.03597814 0.06451292 -0.019309154 0.006460506 -0.05426936
0.04027358 0.017668476 0.017653352 -0.0063515985 0.015811745 0.11201837 -0.0702393 -0.0490485
0.02059579 -0.03700819 -0.018136311 0.07773286 -0.027461825 0.032122437 0.05710642 0.08098955
-0.085103124 0.007495425 0.042219453 -0.114872925 0.068833895 -0.028875157 -0.16564304 0.099781826
-0.04195045 0.09128517 0.020072749 -0.051680945 0.13400969 0.052293118 -0.035821643 -0.036869366
-0.0010411422 0.08222792 -0.010423711 0.08519027 0.067183234 0.06796746 -0.0064983764 -0.030829817
00000000: 9f44 443d 4380 b13c 16b5 313e 97ff dcba
00000010: f2f1 c43d db89 21bd 8cf3 8abd 57ee a73d
00000020: c6f1 95bc 891c 6ebd 3119 7a3d 0a73 a6bb
00000030: 9275 ea3c 9d5b ca3d 76e6 f1bc 0927 f53c
00000040: 3d5e 803c a2a7 1cbc 14ca 9f3d 0436 ac3d
00000050: 3545 be3d 9d73 24bd 6aba 203d bf42 f1bd
00000060: b13d 033c d702 0cbc 5db5 573d d559 c33c
00000070: 8136 ff3d 69b9 2c3c bf1b a73d eac2 853d
00000080: 2718 9b3d 3d85 cbbc af71 963d efbc ffbc
00000090: 08b5 ba3d 7477 b1bc 4749 ba3d f2bb 1fbd
000000a0: 073f 8dbd f5b0 51bd 43a3 58bd 5e81 e43c
000000b0: 6c39 97bb c51c 923c b511 9a3d bf6c 0cbc
000000c0: 5b86 7bbd 368c 183d 7a7b 74bb 4e41 483d
000000d0: 0551 633c 56d8 aa3a 2cc4 0e3d 9b2d 2ebd
000000e0: e7e0 02be da19 ba3d d82a 4ebd 100d 0c3d
000000f0: 774e 633c 4925 2e3d 8e8c c23c 4d26 f53c
00000100: 3afe 593d ebb5 ce3d 20c3 1bbc 55ac 933d
00000110: 6189 823b 3de9 29bd 14c1 a8bd d1f9 14bd
00000120: 91e2 d93c ebee d33d cf05 2fbd 8d3f 8dbb
00000130: eba9 f9bc 6879 eb3d 44d0 913d ab86 8e3d
00000140: ffcb 1d3d 96f1 9abc 1b69 103b 1daf 9dba
00000150: 6bf1 063d d852 773d a1bb 883d 22f2 eebc
00000160: dc61 39bd 02ba f2bd 5ead 9b3d c8a6 03bc
00000170: 0b1a 8e3b 6026 cfbd 5ade 5d3d 8f5c 5e3d
00000180: 452a a9bc e56f ebbd be40 693d 4e3a 873d
00000190: 2928 23bc 0f89 7cbd efc5 203d 77ca 423d
000001a0: 88f6 02bd 2c28 d93d f55c 193c 5ba8 b53d
000001b0: 37a4 a83d bc6a 983c 1da6 9ebb f374 873d
000001c0: fa5b a23d 0556 9dbc cf21 143d d274 0dbd
000001d0: 6ccf 84bc 96b8 45bd c71c dbbc 158b 0fbb
000001e0: ed8d a83c f7b0 fe3c ebc7 41bd b85d 85bd
000001f0: 2734 10bb 351d f33b 3731 ea3d b02d 973c
00000200: 74f2 b4bc 6af5 f43d 78ec c8bc ac28 ec3d
00000210: f59c ba3d 07c7 69bd 6868 5d3c 2beb ad3d
00000220: 55af 5f3c 30de 923d 8ef0 d93b d5a9 003e
00000230: c339 6fba ff85 86bd 828b 58bc 7b6c 2c3d
00000240: e5f7 9b3d f726 23bd d964 a9bc 417c e43c
00000250: b968 8f3c cad8 f6bc b5f9 fe3a ee72 9a3d
00000260: c221 a33c 1444 e33d 0b8e 933d 5253 9b3d
00000270: 183b 16bd 8ba4 1f3d dcf7 c83d 72d3 ac3d
00000280: c97a b9bc eef5 853d b113 d83c 2b64 ff3c
00000290: 15b9 933d 8ade 4fbd 4d77 913d bf2e 7e3d
000002a0: 599e f43d 8cf5 53bc 7fdf c83d 0ba6 91bd
000002b0: 74fb 7fbc 750f 34bd ee38 c43d 2d4c 95bc
000002c0: 1333 81bd 5d1a 3ebd cd4b c53c 4ce2 763d
000002d0: b2f5 a5bd f29c 243d 4b03 97bd 4d14 9f3d
000002e0: e9cf e9bd 279d debc adf7 053d ff8b 723d
000002f0: 59e9 b53d 056c 8c3d 47a3 90bd 9632 a7bb
00000300: 9b85 3fbc 82ff d63d 0708 c8bb a2e1 5f3c
00000310: d41f 853d ca5a 82bd 64a2 e43d 3c75 51bb
00000320: cf79 8bbc 525a 8a3d fb06 063c 2b37 79bd
00000330: 3bea 5cbd f710 d83c b74a d83c d928 cebc
00000340: 132c 9dbd 0581 2d3c 47ee ba3c d05d 133d
00000350: 5a1f 843d 3b2e 9ebc a7b2 d33b 8c49 5ebd
00000360: e9f5 243d 7bbd 903c c39d 903c 1221 d0bb
00000370: a287 813c e369 e53d 9fd9 8fbd 14e7 48bd
00000380: 81b8 a83c e695 17bd 9a92 94bc 6832 9f3d
00000390: 9ff7 e0bc d192 033d 6ce8 693d d9dd a53d
000003a0: 8c4a aebd 2f9c f53b 4eee 2c3d 7f42 ebbd
000003b0: c9f8 8c3d 988b ecbc 549e 29be 6a5a cc3d
000003c0: 3cd4 2bbd b8f3 ba3d 9b6f a43c 66af 53bd
000003d0: d639 093e 4f31 563d b7b9 12bd 5504 17bd
000003e0: ef76 88ba 1d67 a83d 36c8 2abc 3c78 ae3d
000003f0: 5d97 893d 8632 8b3d 55f0 d4bb d08e fcbc

fc2.bias f4 [128]
0.012326878 0.08272169 0.031615596 -0.04047035 0.01075257 -0.034831036 -0.025564555 -0.012988792
0.016678872 0.018015904 0.02093575 0.07623468 0.0010652603 -0.0886253 -0.044770636 -0.054709785
0.08997443 0.03614753 -0.0031283037 0.045310516 0.06744904 0.073595546 -0.0444769 -0.061261058
0.09557844 0.006990611 0.08161828 -0.051218063 0.014229893 -0.041298877 0.05151818 0.072062574
0.022677047 -0.054497547 -0.004276087 -0.062451802 0.07427503 0.020191073 0.07328806 0.01696677
-0.050712902 -0.0054086344 0.024991944 -0.0743293 -0.029845735 0.12769419 0.027291294 0.05632041
0.08649819 0.03314886 -0.06713125 -0.055011183 0.0177585 -0.042920787 -0.020436067 -0.063870616
0.058045547 -6.314474e-05 -0.022653503 0.02741858 0.0069748233 -0.033113535 0.0664939 0.03780649
-0.008777239 -0.019519364 0.024908293 0.027397092 0.08096936 0.072394416 0.02683578 -0.030933883
0.036845483 0.023650128 -0.04275792 0.028473293 0.06191814 -0.08988731 -0.011933665 -0.039625596
0.049067415 0.039204933 -0.054160047 -0.044133037 -0.042331275 0.088247165 -0.009970536 0.029325562
0.089130744 0.0965358 0.083540626 -0.018262284 -0.025215218 0.036258128 -0.013088226 0.004340681
-0.08228942 -0.03556357 0.1122648 0.02310512 -0.025004044 0.03803287 -0.053570367 0.08336258
-0.026559329 0.063998275 0.02630681 -0.03516839 0.003781391 -0.007388878 0.035270922 0.047749452
0.028796503 -0.030724237 0.019644571 -0.01039296 0.023714291 0.011389433 -0.0064300327 -0.045685302
-0.068625286 0.071303576 0.07696682 -0.0023341943 0.016158627 -0.10299752 -0.05310157 0.04031423
00000000: acf6 493c fd69 a93d 5b7f 013d 3dc4 25bd
00000010: 8c2b 303c fdaa 0ebd c26c d1bc f1ce 54bc
00000020: 21a2 883c 1796 933c 7381 ab3c ee20 9c3d
00000030: 34a0 8b3a 2e81 b5bd 6a61 37bd 5e17 60bd
00000040: 8444 b83d 6f0f 143d 3a04 4dbb 8597 393d
00000050: b922 8a3d 43b9 963d 692d 36bd e0ec 7abd
00000060: a1be c33d 7f11 e53b 7c27 a73d 08ca 51bd
00000070: 7f24 693c 0329 29bd ba04 533d 8b95 933d
00000080: 37c5 b93c d238 5fbd 6b1e 8cbb 76cd 7fbd
00000090: 821d 983d c067 a53c 0d18 963d e5fd 8a3c
000000a0: 55b8 4fbd ea3a b1bb e8bb cc3c f639 98bd
000000b0: 0b7f f4bc 44c2 023e fe91 df3c 3bb0 663d
000000c0: f725 b13d 19c7 073d 1c7c 89bd 6853 61bd
000000d0: 467a 913c b5cd 2fbd 8a69 a7bc 99ce 82bd
000000e0: 2bc1 6d3d 936c 84b8 d793 b9bc ee9c e03c
000000f0: 0f8d e43b 0fa2 07bd f42d 883d fada 1a3d
00000100: 69ce 0fbc 13e7 9fbc 7a0c cc3c de6f e03c
00000110: 44d3 a53d 8643 943d b6d6 db3c 0e69 fdbc
00000120: 4aeb 163d eabd c13c ee22 2fbd d340 e93c
00000130: e09d 7d3d d716 b8bd 6b85 43bc 734e 22bd
00000140: eafa 483d 5a95 203d edd6 5dbd d8c4 34bd
00000150: 8f63 2dbd eeba b43d 765b 23bc 293c f03c
00000160: 2e8a b63d 90b4 c53d 5917 ab3d c99a 95bc
00000170: 2590 cebc 6783 143d 0070 56bc 453c 8e3b
00000180: 5b87 a8bd 1bab 11bd 16eb e53d f346 bd3c
00000190: 48d5 ccbc 5bc8 1b3d 9a6c 5bbd 00ba aa3d
000001a0: f392 d9bc 8711 833d 6181 d73c bb0c 10bd
000001b0: 37d1 773b 671e f2bb 3e78 103d ee94 433d
000001c0: a5e6 eb3c 65b1 fbbc a7ed a03c 3c47 2abc
000001d0: 7944 c23c bf9a 3a3c 06b3 d2bb 8320 3bbd
000001e0: 6a8b 8cbd 9c07 923d c8a0 9d3d 48f9 18bb
000001f0: 195f 843c 5df0 d2bd 0881 59bd 8920 253d

fc3.weight f4 [1, 128]
0.03526967 0.07271824 0.052190762 -0.2004823 0.16035324 -0.11035463 0.045101967 0.07693216
0.051934928 -0.12407431 0.098912716 0.19942543 -0.056297533 -0.15805957 -0.17338094 -0.0972085
0.07856044 0.031852543 0.06526705 0.18269233 0.031866856 0.09768824 -0.07657017 -0.25075933
0.11386399 -0.13632388 0.20086284 -0.13482559 -0.21106538 -0.08180643 0.057039622 0.068038374
0.0679459 -0.11641193 -0.09525684 -0.10626573 0.08381738 0.0732333 0.07943779 -0.11822635
-0.10032857 -0.12773728 0.074859336 -0.124547325 -0.07946107 0.08062268 0.07817721 0.06780542
0.04761972 -0.08764812 -0.15628996 -0.096362926 0.11347469 -0.1291693 -0.12921527 -0.07475222
0.08310459 -0.20580755 -0.186866 0.059702836 0.12451757 -0.16950737 0.0892823 0.12627868
-0.049167655 -0.054901924 -0.1383311 0.065870985 0.08745176 0.07446929 -0.088333875 -0.16478921
-0.13861454 0.03487792 -0.06376122 -0.096587196 0.061990477 -0.10845881 0.06509108 0.12081686
0.033233996 0.05154269 -0.15858534 -0.14710297 -0.19387232 0.040705398 -0.060773123 -0.049699746
0.08466537 0.04364048 0.10986683 -0.16942401 -0.09186968 0.1534832 0.061865665 0.04624299
-0.1887791 -0.11334475 0.07835442 0.046277113 0.1663902 0.17379837 -0.09921109 0.039048
0.08801661 0.13658032 0.12772372 0.086358726 0.0394432 -0.14615943 0.03729589 0.08385936
0.19803 -0.10964702 -0.29663542 -0.06357567 0.15116765 0.075069055 0.08116984 -0.05095477
-0.076386705 0.13279738 0.058363248 0.04558418 0.073138595 -0.13166335 -0.19635794 -0.20014033
00000000: ee76 103d 4ded 943d fbc5 553d 3b4b 4dbe
00000010: a433 243e 9c01 e2bd d7bc 383d 9c8e 9d3d
00000020: b8b9 543d ac1a febd c092 ca3d 2e36 4c3e
00000030: 3e98 66bd 5eda 21be c68a 31be 4015 c7bd
00000040: 4ce4 a03d d077 023d bbaa 853d b313 3b3e
00000050: d286 023d c610 c83d d2d0 9cbd 8763 80be
00000060: 8631 e93d 7d98 0bbe fdae 4d3e b80f 0abe
00000070: 8621 58be 218a a7bd 61a2 693d b457 8b3d
00000080: 3827 8b3d 6169 eebd 0516 c3bd d9a1 d9bd
00000090: 72a8 ab3d 57fb 953d 48b0 a23d a820 f2bd
000000a0: 1179 cdbd 90cd 02be da4f 993d ab12 ffbd
000000b0: 7cbc a2bd 811d a53d 601b a03d 91dd 8a3d
000000c0: e50c 433d dc80 b3bd 7a0a 20be ed59 c5bd
000000d0: 6b65 e83d f544 04be 0251 04be b117 99bd
000000e0: bd32 aa3d 37bf 52be cd59 3fbe f68a 743d
000000f0: 1103 ff3d 5793 2dbe a3d9 b63d 334f 013e
00000100: 0664 49bd d7e0 60bd aba6 0dbe 5ee7 863d
00000110: e919 b33d 5b83 983d 64e8 b4bd 81be 28be
00000120: f8f0 0dbe 26dc 0e3d 3e95 82bd 82cf c5bd
00000130: bae9 7d3d a71f debd 794e 853d d46e f73d
00000140: 5f20 083d 6d1e 533d 3264 22be 29a2 16be
00000150: 7786 46be b4ba 263d 3ded 78bd f691 4bbd
00000160: 0a65 ad3d 5cc0 323d dc01 e13d 7d7d 2dbe
00000170: 2c26 bcbd b32a 1d3e da66 7d3d 4a69 3d3d
00000180: 4f4f 41be 4b21 e8bd 4878 a03d 128d 3d3d
00000190: 3162 2a3e 33f8 313e 2f2f cbbd ccf0 1f3d
000001a0: 0d42 b43d b6db 0b3e 02ca 023e d8dc b03d
000001b0: 318f 213d d1aa 15be 93c3 183d 75be ab3d
000001c0: 60c8 4a3e 9e8e e0bd 99e0 97be f633 82bd
000001d0: b1cb 1a3e cebd 993d 603c a63d f3b5 50bd
000001e0: a270 9cbd 09fc 073e 4d0e 6f3d 7ab6 3a3d
000001f0: b0c9 953d c2d2 06be 0e12 49be 96f1 4cbe
